<?xml version="1.0" ?>
<net name="HTRModel16bit" version="10">
	<layers>
		<layer id="0" name="input" type="Parameter" version="opset1">
			<data element_type="f16" shape="1,1,1024,128"/>
			<output>
				<port id="0" precision="FP16">
					<dim>1</dim>
					<dim>1</dim>
					<dim>1024</dim>
					<dim>128</dim>
				</port>
			</output>
		</layer>
		<layer id="1" name="batch_normalization/cond/FusedBatchNormV3_1/mean/Fused_Mul_66916693_const" type="Const" version="opset1">
			<data element_type="f16" offset="0" shape="16,1,3,3" size="288"/>
			<output>
				<port id="1" precision="FP16">
					<dim>16</dim>
					<dim>1</dim>
					<dim>3</dim>
					<dim>3</dim>
				</port>
			</output>
		</layer>
		<layer id="2" name="conv2d/Conv2D" type="Convolution" version="opset1">
			<data auto_pad="same_upper" dilations="1,1" output_padding="0,0" pads_begin="1,1" pads_end="1,1" strides="1,1"/>
			<input>
				<port id="0">
					<dim>1</dim>
					<dim>1</dim>
					<dim>1024</dim>
					<dim>128</dim>
				</port>
				<port id="1">
					<dim>16</dim>
					<dim>1</dim>
					<dim>3</dim>
					<dim>3</dim>
				</port>
			</input>
			<output>
				<port id="2" precision="FP16">
					<dim>1</dim>
					<dim>16</dim>
					<dim>1024</dim>
					<dim>128</dim>
				</port>
			</output>
		</layer>
		<layer id="3" name="data_add_6503/copy_const" type="Const" version="opset1">
			<data element_type="f16" offset="288" shape="1,16,1,1" size="32"/>
			<output>
				<port id="1" precision="FP16">
					<dim>1</dim>
					<dim>16</dim>
					<dim>1</dim>
					<dim>1</dim>
				</port>
			</output>
		</layer>
		<layer id="4" name="conv2d/BiasAdd/Add/Fused_Add_" type="Add" version="opset1">
			<input>
				<port id="0">
					<dim>1</dim>
					<dim>16</dim>
					<dim>1024</dim>
					<dim>128</dim>
				</port>
				<port id="1">
					<dim>1</dim>
					<dim>16</dim>
					<dim>1</dim>
					<dim>1</dim>
				</port>
			</input>
			<output>
				<port id="2" precision="FP16">
					<dim>1</dim>
					<dim>16</dim>
					<dim>1024</dim>
					<dim>128</dim>
				</port>
			</output>
		</layer>
		<layer id="5" name="leaky_re_lu/LeakyRelu8120/Cast_19434_const" type="Const" version="opset1">
			<data element_type="f32" offset="320" shape="1" size="4"/>
			<output>
				<port id="1" precision="FP32">
					<dim>1</dim>
				</port>
			</output>
		</layer>
		<layer id="6" name="leaky_re_lu/LeakyRelu8120" type="PReLU" version="opset1">
			<input>
				<port id="0">
					<dim>1</dim>
					<dim>16</dim>
					<dim>1024</dim>
					<dim>128</dim>
				</port>
				<port id="1">
					<dim>1</dim>
				</port>
			</input>
			<output>
				<port id="2" precision="FP16">
					<dim>1</dim>
					<dim>16</dim>
					<dim>1024</dim>
					<dim>128</dim>
				</port>
			</output>
		</layer>
		<layer id="7" name="max_pooling2d/MaxPool" type="MaxPool" version="opset1">
			<data auto_pad="valid" kernel="2,2" pads_begin="0,0" pads_end="0,0" strides="2,2"/>
			<input>
				<port id="0">
					<dim>1</dim>
					<dim>16</dim>
					<dim>1024</dim>
					<dim>128</dim>
				</port>
			</input>
			<output>
				<port id="1" precision="FP16">
					<dim>1</dim>
					<dim>16</dim>
					<dim>512</dim>
					<dim>64</dim>
				</port>
			</output>
		</layer>
		<layer id="8" name="batch_normalization_1/cond/FusedBatchNormV3_1/mean/Fused_Mul_66956697_const" type="Const" version="opset1">
			<data element_type="f16" offset="324" shape="32,16,3,3" size="9216"/>
			<output>
				<port id="1" precision="FP16">
					<dim>32</dim>
					<dim>16</dim>
					<dim>3</dim>
					<dim>3</dim>
				</port>
			</output>
		</layer>
		<layer id="9" name="conv2d_1/Conv2D" type="Convolution" version="opset1">
			<data auto_pad="same_upper" dilations="1,1" output_padding="0,0" pads_begin="1,1" pads_end="1,1" strides="1,1"/>
			<input>
				<port id="0">
					<dim>1</dim>
					<dim>16</dim>
					<dim>512</dim>
					<dim>64</dim>
				</port>
				<port id="1">
					<dim>32</dim>
					<dim>16</dim>
					<dim>3</dim>
					<dim>3</dim>
				</port>
			</input>
			<output>
				<port id="2" precision="FP16">
					<dim>1</dim>
					<dim>32</dim>
					<dim>512</dim>
					<dim>64</dim>
				</port>
			</output>
		</layer>
		<layer id="10" name="data_add_65066511/copy_const" type="Const" version="opset1">
			<data element_type="f16" offset="9540" shape="1,32,1,1" size="64"/>
			<output>
				<port id="1" precision="FP16">
					<dim>1</dim>
					<dim>32</dim>
					<dim>1</dim>
					<dim>1</dim>
				</port>
			</output>
		</layer>
		<layer id="11" name="conv2d_1/BiasAdd/Add/Fused_Add_" type="Add" version="opset1">
			<input>
				<port id="0">
					<dim>1</dim>
					<dim>32</dim>
					<dim>512</dim>
					<dim>64</dim>
				</port>
				<port id="1">
					<dim>1</dim>
					<dim>32</dim>
					<dim>1</dim>
					<dim>1</dim>
				</port>
			</input>
			<output>
				<port id="2" precision="FP16">
					<dim>1</dim>
					<dim>32</dim>
					<dim>512</dim>
					<dim>64</dim>
				</port>
			</output>
		</layer>
		<layer id="12" name="leaky_re_lu_1/LeakyRelu8124/Cast_19424_const" type="Const" version="opset1">
			<data element_type="f32" offset="320" shape="1" size="4"/>
			<output>
				<port id="1" precision="FP32">
					<dim>1</dim>
				</port>
			</output>
		</layer>
		<layer id="13" name="leaky_re_lu_1/LeakyRelu8124" type="PReLU" version="opset1">
			<input>
				<port id="0">
					<dim>1</dim>
					<dim>32</dim>
					<dim>512</dim>
					<dim>64</dim>
				</port>
				<port id="1">
					<dim>1</dim>
				</port>
			</input>
			<output>
				<port id="2" precision="FP16">
					<dim>1</dim>
					<dim>32</dim>
					<dim>512</dim>
					<dim>64</dim>
				</port>
			</output>
		</layer>
		<layer id="14" name="max_pooling2d_1/MaxPool" type="MaxPool" version="opset1">
			<data auto_pad="valid" kernel="2,2" pads_begin="0,0" pads_end="0,0" strides="2,2"/>
			<input>
				<port id="0">
					<dim>1</dim>
					<dim>32</dim>
					<dim>512</dim>
					<dim>64</dim>
				</port>
			</input>
			<output>
				<port id="1" precision="FP16">
					<dim>1</dim>
					<dim>32</dim>
					<dim>256</dim>
					<dim>32</dim>
				</port>
			</output>
		</layer>
		<layer id="15" name="batch_normalization_2/cond/FusedBatchNormV3_1/mean/Fused_Mul_66996701_const" type="Const" version="opset1">
			<data element_type="f16" offset="9604" shape="48,32,3,3" size="27648"/>
			<output>
				<port id="1" precision="FP16">
					<dim>48</dim>
					<dim>32</dim>
					<dim>3</dim>
					<dim>3</dim>
				</port>
			</output>
		</layer>
		<layer id="16" name="conv2d_2/Conv2D" type="Convolution" version="opset1">
			<data auto_pad="same_upper" dilations="1,1" output_padding="0,0" pads_begin="1,1" pads_end="1,1" strides="1,1"/>
			<input>
				<port id="0">
					<dim>1</dim>
					<dim>32</dim>
					<dim>256</dim>
					<dim>32</dim>
				</port>
				<port id="1">
					<dim>48</dim>
					<dim>32</dim>
					<dim>3</dim>
					<dim>3</dim>
				</port>
			</input>
			<output>
				<port id="2" precision="FP16">
					<dim>1</dim>
					<dim>48</dim>
					<dim>256</dim>
					<dim>32</dim>
				</port>
			</output>
		</layer>
		<layer id="17" name="data_add_65146519/copy_const" type="Const" version="opset1">
			<data element_type="f16" offset="37252" shape="1,48,1,1" size="96"/>
			<output>
				<port id="1" precision="FP16">
					<dim>1</dim>
					<dim>48</dim>
					<dim>1</dim>
					<dim>1</dim>
				</port>
			</output>
		</layer>
		<layer id="18" name="conv2d_2/BiasAdd/Add/Fused_Add_" type="Add" version="opset1">
			<input>
				<port id="0">
					<dim>1</dim>
					<dim>48</dim>
					<dim>256</dim>
					<dim>32</dim>
				</port>
				<port id="1">
					<dim>1</dim>
					<dim>48</dim>
					<dim>1</dim>
					<dim>1</dim>
				</port>
			</input>
			<output>
				<port id="2" precision="FP16">
					<dim>1</dim>
					<dim>48</dim>
					<dim>256</dim>
					<dim>32</dim>
				</port>
			</output>
		</layer>
		<layer id="19" name="leaky_re_lu_2/LeakyRelu8128/Cast_19446_const" type="Const" version="opset1">
			<data element_type="f32" offset="320" shape="1" size="4"/>
			<output>
				<port id="1" precision="FP32">
					<dim>1</dim>
				</port>
			</output>
		</layer>
		<layer id="20" name="leaky_re_lu_2/LeakyRelu8128" type="PReLU" version="opset1">
			<input>
				<port id="0">
					<dim>1</dim>
					<dim>48</dim>
					<dim>256</dim>
					<dim>32</dim>
				</port>
				<port id="1">
					<dim>1</dim>
				</port>
			</input>
			<output>
				<port id="2" precision="FP16">
					<dim>1</dim>
					<dim>48</dim>
					<dim>256</dim>
					<dim>32</dim>
				</port>
			</output>
		</layer>
		<layer id="21" name="max_pooling2d_2/MaxPool" type="MaxPool" version="opset1">
			<data auto_pad="valid" kernel="2,2" pads_begin="0,0" pads_end="0,0" strides="2,2"/>
			<input>
				<port id="0">
					<dim>1</dim>
					<dim>48</dim>
					<dim>256</dim>
					<dim>32</dim>
				</port>
			</input>
			<output>
				<port id="1" precision="FP16">
					<dim>1</dim>
					<dim>48</dim>
					<dim>128</dim>
					<dim>16</dim>
				</port>
			</output>
		</layer>
		<layer id="22" name="batch_normalization_3/cond/FusedBatchNormV3_1/mean/Fused_Mul_67036705_const" type="Const" version="opset1">
			<data element_type="f16" offset="37348" shape="64,48,3,3" size="55296"/>
			<output>
				<port id="1" precision="FP16">
					<dim>64</dim>
					<dim>48</dim>
					<dim>3</dim>
					<dim>3</dim>
				</port>
			</output>
		</layer>
		<layer id="23" name="conv2d_3/Conv2D" type="Convolution" version="opset1">
			<data auto_pad="same_upper" dilations="1,1" output_padding="0,0" pads_begin="1,1" pads_end="1,1" strides="1,1"/>
			<input>
				<port id="0">
					<dim>1</dim>
					<dim>48</dim>
					<dim>128</dim>
					<dim>16</dim>
				</port>
				<port id="1">
					<dim>64</dim>
					<dim>48</dim>
					<dim>3</dim>
					<dim>3</dim>
				</port>
			</input>
			<output>
				<port id="2" precision="FP16">
					<dim>1</dim>
					<dim>64</dim>
					<dim>128</dim>
					<dim>16</dim>
				</port>
			</output>
		</layer>
		<layer id="24" name="data_add_65226527/copy_const" type="Const" version="opset1">
			<data element_type="f16" offset="92644" shape="1,64,1,1" size="128"/>
			<output>
				<port id="1" precision="FP16">
					<dim>1</dim>
					<dim>64</dim>
					<dim>1</dim>
					<dim>1</dim>
				</port>
			</output>
		</layer>
		<layer id="25" name="conv2d_3/BiasAdd/Add/Fused_Add_" type="Add" version="opset1">
			<input>
				<port id="0">
					<dim>1</dim>
					<dim>64</dim>
					<dim>128</dim>
					<dim>16</dim>
				</port>
				<port id="1">
					<dim>1</dim>
					<dim>64</dim>
					<dim>1</dim>
					<dim>1</dim>
				</port>
			</input>
			<output>
				<port id="2" precision="FP16">
					<dim>1</dim>
					<dim>64</dim>
					<dim>128</dim>
					<dim>16</dim>
				</port>
			</output>
		</layer>
		<layer id="26" name="leaky_re_lu_3/LeakyRelu8112/Cast_19438_const" type="Const" version="opset1">
			<data element_type="f32" offset="320" shape="1" size="4"/>
			<output>
				<port id="1" precision="FP32">
					<dim>1</dim>
				</port>
			</output>
		</layer>
		<layer id="27" name="leaky_re_lu_3/LeakyRelu8112" type="PReLU" version="opset1">
			<input>
				<port id="0">
					<dim>1</dim>
					<dim>64</dim>
					<dim>128</dim>
					<dim>16</dim>
				</port>
				<port id="1">
					<dim>1</dim>
				</port>
			</input>
			<output>
				<port id="2" precision="FP16">
					<dim>1</dim>
					<dim>64</dim>
					<dim>128</dim>
					<dim>16</dim>
				</port>
			</output>
		</layer>
		<layer id="28" name="batch_normalization_4/cond/FusedBatchNormV3_1/mean/Fused_Mul_67076709_const" type="Const" version="opset1">
			<data element_type="f16" offset="92772" shape="80,64,3,3" size="92160"/>
			<output>
				<port id="1" precision="FP16">
					<dim>80</dim>
					<dim>64</dim>
					<dim>3</dim>
					<dim>3</dim>
				</port>
			</output>
		</layer>
		<layer id="29" name="conv2d_4/Conv2D" type="Convolution" version="opset1">
			<data auto_pad="same_upper" dilations="1,1" output_padding="0,0" pads_begin="1,1" pads_end="1,1" strides="1,1"/>
			<input>
				<port id="0">
					<dim>1</dim>
					<dim>64</dim>
					<dim>128</dim>
					<dim>16</dim>
				</port>
				<port id="1">
					<dim>80</dim>
					<dim>64</dim>
					<dim>3</dim>
					<dim>3</dim>
				</port>
			</input>
			<output>
				<port id="2" precision="FP16">
					<dim>1</dim>
					<dim>80</dim>
					<dim>128</dim>
					<dim>16</dim>
				</port>
			</output>
		</layer>
		<layer id="30" name="data_add_65306535/copy_const" type="Const" version="opset1">
			<data element_type="f16" offset="184932" shape="1,80,1,1" size="160"/>
			<output>
				<port id="1" precision="FP16">
					<dim>1</dim>
					<dim>80</dim>
					<dim>1</dim>
					<dim>1</dim>
				</port>
			</output>
		</layer>
		<layer id="31" name="conv2d_4/BiasAdd/Add/Fused_Add_" type="Add" version="opset1">
			<input>
				<port id="0">
					<dim>1</dim>
					<dim>80</dim>
					<dim>128</dim>
					<dim>16</dim>
				</port>
				<port id="1">
					<dim>1</dim>
					<dim>80</dim>
					<dim>1</dim>
					<dim>1</dim>
				</port>
			</input>
			<output>
				<port id="2" precision="FP16">
					<dim>1</dim>
					<dim>80</dim>
					<dim>128</dim>
					<dim>16</dim>
				</port>
			</output>
		</layer>
		<layer id="32" name="leaky_re_lu_4/LeakyRelu8116/Cast_19422_const" type="Const" version="opset1">
			<data element_type="f32" offset="320" shape="1" size="4"/>
			<output>
				<port id="1" precision="FP32">
					<dim>1</dim>
				</port>
			</output>
		</layer>
		<layer id="33" name="leaky_re_lu_4/LeakyRelu8116" type="PReLU" version="opset1">
			<input>
				<port id="0">
					<dim>1</dim>
					<dim>80</dim>
					<dim>128</dim>
					<dim>16</dim>
				</port>
				<port id="1">
					<dim>1</dim>
				</port>
			</input>
			<output>
				<port id="2" precision="FP16">
					<dim>1</dim>
					<dim>80</dim>
					<dim>128</dim>
					<dim>16</dim>
				</port>
			</output>
		</layer>
		<layer id="34" name="leaky_re_lu_4/LeakyRelu/Transpose/Cast_19414_const" type="Const" version="opset1">
			<data element_type="i64" offset="185092" shape="4" size="32"/>
			<output>
				<port id="1" precision="I64">
					<dim>4</dim>
				</port>
			</output>
		</layer>
		<layer id="35" name="leaky_re_lu_4/LeakyRelu/Transpose" type="Transpose" version="opset1">
			<input>
				<port id="0">
					<dim>1</dim>
					<dim>80</dim>
					<dim>128</dim>
					<dim>16</dim>
				</port>
				<port id="1">
					<dim>4</dim>
				</port>
			</input>
			<output>
				<port id="2" precision="FP16">
					<dim>1</dim>
					<dim>128</dim>
					<dim>16</dim>
					<dim>80</dim>
				</port>
			</output>
		</layer>
		<layer id="36" name="reshape/Reshape/Cast_19466_const" type="Const" version="opset1">
			<data element_type="i64" offset="185124" shape="3" size="24"/>
			<output>
				<port id="1" precision="I64">
					<dim>3</dim>
				</port>
			</output>
		</layer>
		<layer id="37" name="reshape/Reshape" type="Reshape" version="opset1">
			<data special_zero="False"/>
			<input>
				<port id="0">
					<dim>1</dim>
					<dim>128</dim>
					<dim>16</dim>
					<dim>80</dim>
				</port>
				<port id="1">
					<dim>3</dim>
				</port>
			</input>
			<output>
				<port id="2" precision="FP16">
					<dim>1</dim>
					<dim>128</dim>
					<dim>1280</dim>
				</port>
			</output>
		</layer>
		<layer id="38" name="bidirectional/forward_lstm_1/transpose/Cast_19428_const" type="Const" version="opset1">
			<data element_type="i64" offset="185148" shape="3" size="24"/>
			<output>
				<port id="1" precision="I64">
					<dim>3</dim>
				</port>
			</output>
		</layer>
		<layer id="39" name="bidirectional/forward_lstm_1/transpose" type="Transpose" version="opset1">
			<input>
				<port id="0">
					<dim>1</dim>
					<dim>128</dim>
					<dim>1280</dim>
				</port>
				<port id="1">
					<dim>3</dim>
				</port>
			</input>
			<output>
				<port id="2" precision="FP16">
					<dim>128</dim>
					<dim>1</dim>
					<dim>1280</dim>
				</port>
			</output>
		</layer>
		<layer id="40" name="bidirectional/forward_lstm_1/while/Enter_2/Output_0/Data__const" type="Const" version="opset1">
			<data element_type="f16" offset="185172" shape="1,256" size="512"/>
			<output>
				<port id="1" precision="FP16">
					<dim>1</dim>
					<dim>256</dim>
				</port>
			</output>
		</layer>
		<layer id="41" name="bidirectional/forward_lstm_1/while/Enter_3/Output_0/Data__const" type="Const" version="opset1">
			<data element_type="f16" offset="185172" shape="1,256" size="512"/>
			<output>
				<port id="1" precision="FP16">
					<dim>1</dim>
					<dim>256</dim>
				</port>
			</output>
		</layer>
		<layer id="42" name="bidirectional/forward_lstm_1/while/LoopCond/TensorIteratorCondition_/TensorIterator" type="TensorIterator" version="opset1">
			<input>
				<port id="0">
					<dim>128</dim>
					<dim>1</dim>
					<dim>1280</dim>
				</port>
				<port id="1">
					<dim>1</dim>
					<dim>256</dim>
				</port>
				<port id="2">
					<dim>1</dim>
					<dim>256</dim>
				</port>
			</input>
			<output>
				<port id="3" precision="FP16">
					<dim>128</dim>
					<dim>1</dim>
					<dim>256</dim>
				</port>
			</output>
			<port_map>
				<input external_port_id="2" internal_layer_id="16"/>
				<input external_port_id="1" internal_layer_id="7"/>
				<input axis="0" external_port_id="0" internal_layer_id="0"/>
				<output axis="0" external_port_id="3" internal_layer_id="29"/>
			</port_map>
			<back_edges>
				<edge from-layer="26" to-layer="7"/>
				<edge from-layer="22" to-layer="16"/>
			</back_edges>
			<body>
				<layers>
					<layer id="0" name="62" type="Parameter" version="opset1">
						<data element_type="f16" shape="1,1,1280"/>
						<output>
							<port id="0" precision="FP16">
								<dim>1</dim>
								<dim>1</dim>
								<dim>1280</dim>
							</port>
						</output>
					</layer>
					<layer id="1" name="55_const" type="Const" version="opset1">
						<data element_type="i64" offset="286274" shape="1" size="8"/>
						<output>
							<port id="1" precision="I64">
								<dim>1</dim>
							</port>
						</output>
					</layer>
					<layer id="2" name="bidirectional/forward_lstm_1/while/TensorArrayReadV3/Output_0/Data_/InputSqueeze" type="Squeeze" version="opset1">
						<input>
							<port id="0">
								<dim>1</dim>
								<dim>1</dim>
								<dim>1280</dim>
							</port>
							<port id="1">
								<dim>1</dim>
							</port>
						</input>
						<output>
							<port id="2" precision="FP16">
								<dim>1</dim>
								<dim>1280</dim>
							</port>
						</output>
					</layer>
					<layer id="3" name="bidirectional/forward_lstm_1/while/mul/Enter/Output_0/Data__const" type="Const" version="opset1">
						<data element_type="f16" offset="286282" shape="1,1280" size="2560"/>
						<output>
							<port id="1" precision="FP16">
								<dim>1</dim>
								<dim>1280</dim>
							</port>
						</output>
					</layer>
					<layer id="4" name="bidirectional/forward_lstm_1/while/mul" type="Multiply" version="opset1">
						<input>
							<port id="0">
								<dim>1</dim>
								<dim>1280</dim>
							</port>
							<port id="1">
								<dim>1</dim>
								<dim>1280</dim>
							</port>
						</input>
						<output>
							<port id="2" precision="FP16">
								<dim>1</dim>
								<dim>1280</dim>
							</port>
						</output>
					</layer>
					<layer id="5" name="bidirectional/forward_lstm_1/while/MatMul/1_port_transpose401_const" type="Const" version="opset1">
						<data element_type="f16" offset="288842" shape="1024,1280" size="2621440"/>
						<output>
							<port id="1" precision="FP16">
								<dim>1024</dim>
								<dim>1280</dim>
							</port>
						</output>
					</layer>
					<layer id="6" name="bidirectional/forward_lstm_1/while/MatMul" type="MatMul" version="opset1">
						<data transpose_a="False" transpose_b="True"/>
						<input>
							<port id="0">
								<dim>1</dim>
								<dim>1280</dim>
							</port>
							<port id="1">
								<dim>1024</dim>
								<dim>1280</dim>
							</port>
						</input>
						<output>
							<port id="2" precision="FP16">
								<dim>1</dim>
								<dim>1024</dim>
							</port>
						</output>
					</layer>
					<layer id="7" name="64" type="Parameter" version="opset1">
						<data element_type="f16" shape="1,256"/>
						<output>
							<port id="0" precision="FP16">
								<dim>1</dim>
								<dim>256</dim>
							</port>
						</output>
					</layer>
					<layer id="8" name="bidirectional/forward_lstm_1/while/MatMul_1/1_port_transpose405_const" type="Const" version="opset1">
						<data element_type="f16" offset="2910282" shape="1024,256" size="524288"/>
						<output>
							<port id="1" precision="FP16">
								<dim>1024</dim>
								<dim>256</dim>
							</port>
						</output>
					</layer>
					<layer id="9" name="bidirectional/forward_lstm_1/while/MatMul_1" type="MatMul" version="opset1">
						<data transpose_a="False" transpose_b="True"/>
						<input>
							<port id="0">
								<dim>1</dim>
								<dim>256</dim>
							</port>
							<port id="1">
								<dim>1024</dim>
								<dim>256</dim>
							</port>
						</input>
						<output>
							<port id="2" precision="FP16">
								<dim>1</dim>
								<dim>1024</dim>
							</port>
						</output>
					</layer>
					<layer id="10" name="bidirectional/forward_lstm_1/while/add" type="Add" version="opset1">
						<input>
							<port id="0">
								<dim>1</dim>
								<dim>1024</dim>
							</port>
							<port id="1">
								<dim>1</dim>
								<dim>1024</dim>
							</port>
						</input>
						<output>
							<port id="2" precision="FP16">
								<dim>1</dim>
								<dim>1024</dim>
							</port>
						</output>
					</layer>
					<layer id="11" name="bidirectional/forward_lstm_1/while/BiasAdd/ReadVariableOp/Output_0/Data__const" type="Const" version="opset1">
						<data element_type="f16" offset="3434570" shape="1024" size="2048"/>
						<output>
							<port id="1" precision="FP16">
								<dim>1024</dim>
							</port>
						</output>
					</layer>
					<layer id="12" name="bidirectional/forward_lstm_1/while/BiasAdd/Add" type="Add" version="opset1">
						<input>
							<port id="0">
								<dim>1</dim>
								<dim>1024</dim>
							</port>
							<port id="1">
								<dim>1024</dim>
							</port>
						</input>
						<output>
							<port id="2" precision="FP16">
								<dim>1</dim>
								<dim>1024</dim>
							</port>
						</output>
					</layer>
					<layer id="13" name="bidirectional/forward_lstm_1/while/split/split_dim/Output_0/Data__const" type="Const" version="opset1">
						<data element_type="i64" offset="3436618" shape="" size="8"/>
						<output>
							<port id="1" precision="I64"/>
						</output>
					</layer>
					<layer id="14" name="bidirectional/forward_lstm_1/while/split" type="Split" version="opset1">
						<data num_splits="4"/>
						<input>
							<port id="0">
								<dim>1</dim>
								<dim>1024</dim>
							</port>
							<port id="1"/>
						</input>
						<output>
							<port id="2" precision="FP16">
								<dim>1</dim>
								<dim>256</dim>
							</port>
							<port id="3" precision="FP16">
								<dim>1</dim>
								<dim>256</dim>
							</port>
							<port id="4" precision="FP16">
								<dim>1</dim>
								<dim>256</dim>
							</port>
							<port id="5" precision="FP16">
								<dim>1</dim>
								<dim>256</dim>
							</port>
						</output>
					</layer>
					<layer id="15" name="bidirectional/forward_lstm_1/while/Sigmoid_1" type="Sigmoid" version="opset1">
						<input>
							<port id="0">
								<dim>1</dim>
								<dim>256</dim>
							</port>
						</input>
						<output>
							<port id="1" precision="FP16">
								<dim>1</dim>
								<dim>256</dim>
							</port>
						</output>
					</layer>
					<layer id="16" name="66" type="Parameter" version="opset1">
						<data element_type="f16" shape="1,256"/>
						<output>
							<port id="0" precision="FP16">
								<dim>1</dim>
								<dim>256</dim>
							</port>
						</output>
					</layer>
					<layer id="17" name="bidirectional/forward_lstm_1/while/mul_1" type="Multiply" version="opset1">
						<input>
							<port id="0">
								<dim>1</dim>
								<dim>256</dim>
							</port>
							<port id="1">
								<dim>1</dim>
								<dim>256</dim>
							</port>
						</input>
						<output>
							<port id="2" precision="FP16">
								<dim>1</dim>
								<dim>256</dim>
							</port>
						</output>
					</layer>
					<layer id="18" name="bidirectional/forward_lstm_1/while/Sigmoid" type="Sigmoid" version="opset1">
						<input>
							<port id="0">
								<dim>1</dim>
								<dim>256</dim>
							</port>
						</input>
						<output>
							<port id="1" precision="FP16">
								<dim>1</dim>
								<dim>256</dim>
							</port>
						</output>
					</layer>
					<layer id="19" name="bidirectional/forward_lstm_1/while/Tanh" type="Tanh" version="opset1">
						<input>
							<port id="0">
								<dim>1</dim>
								<dim>256</dim>
							</port>
						</input>
						<output>
							<port id="1" precision="FP16">
								<dim>1</dim>
								<dim>256</dim>
							</port>
						</output>
					</layer>
					<layer id="20" name="bidirectional/forward_lstm_1/while/mul_2" type="Multiply" version="opset1">
						<input>
							<port id="0">
								<dim>1</dim>
								<dim>256</dim>
							</port>
							<port id="1">
								<dim>1</dim>
								<dim>256</dim>
							</port>
						</input>
						<output>
							<port id="2" precision="FP16">
								<dim>1</dim>
								<dim>256</dim>
							</port>
						</output>
					</layer>
					<layer id="21" name="bidirectional/forward_lstm_1/while/add_1" type="Add" version="opset1">
						<input>
							<port id="0">
								<dim>1</dim>
								<dim>256</dim>
							</port>
							<port id="1">
								<dim>1</dim>
								<dim>256</dim>
							</port>
						</input>
						<output>
							<port id="2" precision="FP16">
								<dim>1</dim>
								<dim>256</dim>
							</port>
						</output>
					</layer>
					<layer id="22" name="bidirectional/forward_lstm_1/while/add_1/Output_0/Data_/sink_port_0" type="Result" version="opset1">
						<input>
							<port id="0">
								<dim>1</dim>
								<dim>256</dim>
							</port>
						</input>
					</layer>
					<layer id="23" name="bidirectional/forward_lstm_1/while/Sigmoid_2" type="Sigmoid" version="opset1">
						<input>
							<port id="0">
								<dim>1</dim>
								<dim>256</dim>
							</port>
						</input>
						<output>
							<port id="1" precision="FP16">
								<dim>1</dim>
								<dim>256</dim>
							</port>
						</output>
					</layer>
					<layer id="24" name="bidirectional/forward_lstm_1/while/Tanh_1" type="Tanh" version="opset1">
						<input>
							<port id="0">
								<dim>1</dim>
								<dim>256</dim>
							</port>
						</input>
						<output>
							<port id="1" precision="FP16">
								<dim>1</dim>
								<dim>256</dim>
							</port>
						</output>
					</layer>
					<layer id="25" name="bidirectional/forward_lstm_1/while/mul_3" type="Multiply" version="opset1">
						<input>
							<port id="0">
								<dim>1</dim>
								<dim>256</dim>
							</port>
							<port id="1">
								<dim>1</dim>
								<dim>256</dim>
							</port>
						</input>
						<output>
							<port id="2" precision="FP16">
								<dim>1</dim>
								<dim>256</dim>
							</port>
						</output>
					</layer>
					<layer id="26" name="bidirectional/forward_lstm_1/while/mul_3/Output_0/Data_/sink_port_0" type="Result" version="opset1">
						<input>
							<port id="0">
								<dim>1</dim>
								<dim>256</dim>
							</port>
						</input>
					</layer>
					<layer id="27" name="58_const" type="Const" version="opset1">
						<data element_type="i64" offset="286274" shape="1" size="8"/>
						<output>
							<port id="1" precision="I64">
								<dim>1</dim>
							</port>
						</output>
					</layer>
					<layer id="28" name="bidirectional/forward_lstm_1/while/mul_3/Output_0/Data_/OutputUnsqueeze" type="Unsqueeze" version="opset1">
						<input>
							<port id="0">
								<dim>1</dim>
								<dim>256</dim>
							</port>
							<port id="1">
								<dim>1</dim>
							</port>
						</input>
						<output>
							<port id="2" precision="FP16">
								<dim>1</dim>
								<dim>1</dim>
								<dim>256</dim>
							</port>
						</output>
					</layer>
					<layer id="29" name="60/sink_port_0" type="Result" version="opset1">
						<input>
							<port id="0">
								<dim>1</dim>
								<dim>1</dim>
								<dim>256</dim>
							</port>
						</input>
					</layer>
				</layers>
				<edges>
					<edge from-layer="0" from-port="0" to-layer="2" to-port="0"/>
					<edge from-layer="1" from-port="1" to-layer="2" to-port="1"/>
					<edge from-layer="2" from-port="2" to-layer="4" to-port="0"/>
					<edge from-layer="3" from-port="1" to-layer="4" to-port="1"/>
					<edge from-layer="4" from-port="2" to-layer="6" to-port="0"/>
					<edge from-layer="5" from-port="1" to-layer="6" to-port="1"/>
					<edge from-layer="7" from-port="0" to-layer="9" to-port="0"/>
					<edge from-layer="8" from-port="1" to-layer="9" to-port="1"/>
					<edge from-layer="6" from-port="2" to-layer="10" to-port="0"/>
					<edge from-layer="9" from-port="2" to-layer="10" to-port="1"/>
					<edge from-layer="10" from-port="2" to-layer="12" to-port="0"/>
					<edge from-layer="11" from-port="1" to-layer="12" to-port="1"/>
					<edge from-layer="12" from-port="2" to-layer="14" to-port="0"/>
					<edge from-layer="13" from-port="1" to-layer="14" to-port="1"/>
					<edge from-layer="14" from-port="3" to-layer="15" to-port="0"/>
					<edge from-layer="15" from-port="1" to-layer="17" to-port="0"/>
					<edge from-layer="16" from-port="0" to-layer="17" to-port="1"/>
					<edge from-layer="14" from-port="2" to-layer="18" to-port="0"/>
					<edge from-layer="14" from-port="4" to-layer="19" to-port="0"/>
					<edge from-layer="18" from-port="1" to-layer="20" to-port="0"/>
					<edge from-layer="19" from-port="1" to-layer="20" to-port="1"/>
					<edge from-layer="17" from-port="2" to-layer="21" to-port="0"/>
					<edge from-layer="20" from-port="2" to-layer="21" to-port="1"/>
					<edge from-layer="21" from-port="2" to-layer="22" to-port="0"/>
					<edge from-layer="14" from-port="5" to-layer="23" to-port="0"/>
					<edge from-layer="21" from-port="2" to-layer="24" to-port="0"/>
					<edge from-layer="23" from-port="1" to-layer="25" to-port="0"/>
					<edge from-layer="24" from-port="1" to-layer="25" to-port="1"/>
					<edge from-layer="25" from-port="2" to-layer="26" to-port="0"/>
					<edge from-layer="25" from-port="2" to-layer="28" to-port="0"/>
					<edge from-layer="27" from-port="1" to-layer="28" to-port="1"/>
					<edge from-layer="28" from-port="2" to-layer="29" to-port="0"/>
				</edges>
			</body>
		</layer>
		<layer id="43" name="bidirectional/forward_lstm_1/transpose_1/Cast_19454_const" type="Const" version="opset1">
			<data element_type="i64" offset="185148" shape="3" size="24"/>
			<output>
				<port id="1" precision="I64">
					<dim>3</dim>
				</port>
			</output>
		</layer>
		<layer id="44" name="bidirectional/forward_lstm_1/transpose_1" type="Transpose" version="opset1">
			<input>
				<port id="0">
					<dim>128</dim>
					<dim>1</dim>
					<dim>256</dim>
				</port>
				<port id="1">
					<dim>3</dim>
				</port>
			</input>
			<output>
				<port id="2" precision="FP16">
					<dim>1</dim>
					<dim>128</dim>
					<dim>256</dim>
				</port>
			</output>
		</layer>
		<layer id="45" name="bidirectional/backward_lstm_1/transpose/Cast_19432_const" type="Const" version="opset1">
			<data element_type="i64" offset="185148" shape="3" size="24"/>
			<output>
				<port id="1" precision="I64">
					<dim>3</dim>
				</port>
			</output>
		</layer>
		<layer id="46" name="bidirectional/backward_lstm_1/transpose" type="Transpose" version="opset1">
			<input>
				<port id="0">
					<dim>1</dim>
					<dim>128</dim>
					<dim>1280</dim>
				</port>
				<port id="1">
					<dim>3</dim>
				</port>
			</input>
			<output>
				<port id="2" precision="FP16">
					<dim>128</dim>
					<dim>1</dim>
					<dim>1280</dim>
				</port>
			</output>
		</layer>
		<layer id="47" name="35163518_const" type="Const" version="opset1">
			<data element_type="f16" offset="185684" shape="1" size="2"/>
			<output>
				<port id="1" precision="FP16">
					<dim>1</dim>
				</port>
			</output>
		</layer>
		<layer id="48" name="bidirectional/backward_lstm_1/ReverseV2/ReverseSequence/" type="ReverseSequence" version="opset1">
			<data batch_axis="1" seq_axis="0"/>
			<input>
				<port id="0">
					<dim>128</dim>
					<dim>1</dim>
					<dim>1280</dim>
				</port>
				<port id="1">
					<dim>1</dim>
				</port>
			</input>
			<output>
				<port id="2" precision="FP16">
					<dim>128</dim>
					<dim>1</dim>
					<dim>1280</dim>
				</port>
			</output>
		</layer>
		<layer id="49" name="bidirectional/backward_lstm_1/while/Enter_2/Output_0/Data__const" type="Const" version="opset1">
			<data element_type="f16" offset="185172" shape="1,256" size="512"/>
			<output>
				<port id="1" precision="FP16">
					<dim>1</dim>
					<dim>256</dim>
				</port>
			</output>
		</layer>
		<layer id="50" name="bidirectional/backward_lstm_1/while/Enter_3/Output_0/Data__const" type="Const" version="opset1">
			<data element_type="f16" offset="185172" shape="1,256" size="512"/>
			<output>
				<port id="1" precision="FP16">
					<dim>1</dim>
					<dim>256</dim>
				</port>
			</output>
		</layer>
		<layer id="51" name="bidirectional/backward_lstm_1/while/LoopCond/TensorIteratorCondition_/TensorIterator" type="TensorIterator" version="opset1">
			<input>
				<port id="0">
					<dim>128</dim>
					<dim>1</dim>
					<dim>1280</dim>
				</port>
				<port id="1">
					<dim>1</dim>
					<dim>256</dim>
				</port>
				<port id="2">
					<dim>1</dim>
					<dim>256</dim>
				</port>
			</input>
			<output>
				<port id="3" precision="FP16">
					<dim>128</dim>
					<dim>1</dim>
					<dim>256</dim>
				</port>
			</output>
			<port_map>
				<input external_port_id="2" internal_layer_id="16"/>
				<input external_port_id="1" internal_layer_id="7"/>
				<input axis="0" external_port_id="0" internal_layer_id="0"/>
				<output axis="0" external_port_id="3" internal_layer_id="29"/>
			</port_map>
			<back_edges>
				<edge from-layer="26" to-layer="7"/>
				<edge from-layer="22" to-layer="16"/>
			</back_edges>
			<body>
				<layers>
					<layer id="0" name="62" type="Parameter" version="opset1">
						<data element_type="f16" shape="1,1,1280"/>
						<output>
							<port id="0" precision="FP16">
								<dim>1</dim>
								<dim>1</dim>
								<dim>1280</dim>
							</port>
						</output>
					</layer>
					<layer id="1" name="55_const" type="Const" version="opset1">
						<data element_type="i64" offset="286274" shape="1" size="8"/>
						<output>
							<port id="1" precision="I64">
								<dim>1</dim>
							</port>
						</output>
					</layer>
					<layer id="2" name="bidirectional/backward_lstm_1/while/TensorArrayReadV3/Output_0/Data_/InputSqueeze" type="Squeeze" version="opset1">
						<input>
							<port id="0">
								<dim>1</dim>
								<dim>1</dim>
								<dim>1280</dim>
							</port>
							<port id="1">
								<dim>1</dim>
							</port>
						</input>
						<output>
							<port id="2" precision="FP16">
								<dim>1</dim>
								<dim>1280</dim>
							</port>
						</output>
					</layer>
					<layer id="3" name="bidirectional/backward_lstm_1/while/mul/Enter/Output_0/Data__const" type="Const" version="opset1">
						<data element_type="f16" offset="286282" shape="1,1280" size="2560"/>
						<output>
							<port id="1" precision="FP16">
								<dim>1</dim>
								<dim>1280</dim>
							</port>
						</output>
					</layer>
					<layer id="4" name="bidirectional/backward_lstm_1/while/mul" type="Multiply" version="opset1">
						<input>
							<port id="0">
								<dim>1</dim>
								<dim>1280</dim>
							</port>
							<port id="1">
								<dim>1</dim>
								<dim>1280</dim>
							</port>
						</input>
						<output>
							<port id="2" precision="FP16">
								<dim>1</dim>
								<dim>1280</dim>
							</port>
						</output>
					</layer>
					<layer id="5" name="bidirectional/backward_lstm_1/while/MatMul/1_port_transpose405_const" type="Const" version="opset1">
						<data element_type="f16" offset="3436626" shape="1024,1280" size="2621440"/>
						<output>
							<port id="1" precision="FP16">
								<dim>1024</dim>
								<dim>1280</dim>
							</port>
						</output>
					</layer>
					<layer id="6" name="bidirectional/backward_lstm_1/while/MatMul" type="MatMul" version="opset1">
						<data transpose_a="False" transpose_b="True"/>
						<input>
							<port id="0">
								<dim>1</dim>
								<dim>1280</dim>
							</port>
							<port id="1">
								<dim>1024</dim>
								<dim>1280</dim>
							</port>
						</input>
						<output>
							<port id="2" precision="FP16">
								<dim>1</dim>
								<dim>1024</dim>
							</port>
						</output>
					</layer>
					<layer id="7" name="64" type="Parameter" version="opset1">
						<data element_type="f16" shape="1,256"/>
						<output>
							<port id="0" precision="FP16">
								<dim>1</dim>
								<dim>256</dim>
							</port>
						</output>
					</layer>
					<layer id="8" name="bidirectional/backward_lstm_1/while/MatMul_1/1_port_transpose401_const" type="Const" version="opset1">
						<data element_type="f16" offset="6058066" shape="1024,256" size="524288"/>
						<output>
							<port id="1" precision="FP16">
								<dim>1024</dim>
								<dim>256</dim>
							</port>
						</output>
					</layer>
					<layer id="9" name="bidirectional/backward_lstm_1/while/MatMul_1" type="MatMul" version="opset1">
						<data transpose_a="False" transpose_b="True"/>
						<input>
							<port id="0">
								<dim>1</dim>
								<dim>256</dim>
							</port>
							<port id="1">
								<dim>1024</dim>
								<dim>256</dim>
							</port>
						</input>
						<output>
							<port id="2" precision="FP16">
								<dim>1</dim>
								<dim>1024</dim>
							</port>
						</output>
					</layer>
					<layer id="10" name="bidirectional/backward_lstm_1/while/add" type="Add" version="opset1">
						<input>
							<port id="0">
								<dim>1</dim>
								<dim>1024</dim>
							</port>
							<port id="1">
								<dim>1</dim>
								<dim>1024</dim>
							</port>
						</input>
						<output>
							<port id="2" precision="FP16">
								<dim>1</dim>
								<dim>1024</dim>
							</port>
						</output>
					</layer>
					<layer id="11" name="bidirectional/backward_lstm_1/while/BiasAdd/ReadVariableOp/Output_0/Data__const" type="Const" version="opset1">
						<data element_type="f16" offset="6582354" shape="1024" size="2048"/>
						<output>
							<port id="1" precision="FP16">
								<dim>1024</dim>
							</port>
						</output>
					</layer>
					<layer id="12" name="bidirectional/backward_lstm_1/while/BiasAdd/Add" type="Add" version="opset1">
						<input>
							<port id="0">
								<dim>1</dim>
								<dim>1024</dim>
							</port>
							<port id="1">
								<dim>1024</dim>
							</port>
						</input>
						<output>
							<port id="2" precision="FP16">
								<dim>1</dim>
								<dim>1024</dim>
							</port>
						</output>
					</layer>
					<layer id="13" name="bidirectional/backward_lstm_1/while/split/split_dim/Output_0/Data__const" type="Const" version="opset1">
						<data element_type="i64" offset="3436618" shape="" size="8"/>
						<output>
							<port id="1" precision="I64"/>
						</output>
					</layer>
					<layer id="14" name="bidirectional/backward_lstm_1/while/split" type="Split" version="opset1">
						<data num_splits="4"/>
						<input>
							<port id="0">
								<dim>1</dim>
								<dim>1024</dim>
							</port>
							<port id="1"/>
						</input>
						<output>
							<port id="2" precision="FP16">
								<dim>1</dim>
								<dim>256</dim>
							</port>
							<port id="3" precision="FP16">
								<dim>1</dim>
								<dim>256</dim>
							</port>
							<port id="4" precision="FP16">
								<dim>1</dim>
								<dim>256</dim>
							</port>
							<port id="5" precision="FP16">
								<dim>1</dim>
								<dim>256</dim>
							</port>
						</output>
					</layer>
					<layer id="15" name="bidirectional/backward_lstm_1/while/Sigmoid_1" type="Sigmoid" version="opset1">
						<input>
							<port id="0">
								<dim>1</dim>
								<dim>256</dim>
							</port>
						</input>
						<output>
							<port id="1" precision="FP16">
								<dim>1</dim>
								<dim>256</dim>
							</port>
						</output>
					</layer>
					<layer id="16" name="66" type="Parameter" version="opset1">
						<data element_type="f16" shape="1,256"/>
						<output>
							<port id="0" precision="FP16">
								<dim>1</dim>
								<dim>256</dim>
							</port>
						</output>
					</layer>
					<layer id="17" name="bidirectional/backward_lstm_1/while/mul_1" type="Multiply" version="opset1">
						<input>
							<port id="0">
								<dim>1</dim>
								<dim>256</dim>
							</port>
							<port id="1">
								<dim>1</dim>
								<dim>256</dim>
							</port>
						</input>
						<output>
							<port id="2" precision="FP16">
								<dim>1</dim>
								<dim>256</dim>
							</port>
						</output>
					</layer>
					<layer id="18" name="bidirectional/backward_lstm_1/while/Sigmoid" type="Sigmoid" version="opset1">
						<input>
							<port id="0">
								<dim>1</dim>
								<dim>256</dim>
							</port>
						</input>
						<output>
							<port id="1" precision="FP16">
								<dim>1</dim>
								<dim>256</dim>
							</port>
						</output>
					</layer>
					<layer id="19" name="bidirectional/backward_lstm_1/while/Tanh" type="Tanh" version="opset1">
						<input>
							<port id="0">
								<dim>1</dim>
								<dim>256</dim>
							</port>
						</input>
						<output>
							<port id="1" precision="FP16">
								<dim>1</dim>
								<dim>256</dim>
							</port>
						</output>
					</layer>
					<layer id="20" name="bidirectional/backward_lstm_1/while/mul_2" type="Multiply" version="opset1">
						<input>
							<port id="0">
								<dim>1</dim>
								<dim>256</dim>
							</port>
							<port id="1">
								<dim>1</dim>
								<dim>256</dim>
							</port>
						</input>
						<output>
							<port id="2" precision="FP16">
								<dim>1</dim>
								<dim>256</dim>
							</port>
						</output>
					</layer>
					<layer id="21" name="bidirectional/backward_lstm_1/while/add_1" type="Add" version="opset1">
						<input>
							<port id="0">
								<dim>1</dim>
								<dim>256</dim>
							</port>
							<port id="1">
								<dim>1</dim>
								<dim>256</dim>
							</port>
						</input>
						<output>
							<port id="2" precision="FP16">
								<dim>1</dim>
								<dim>256</dim>
							</port>
						</output>
					</layer>
					<layer id="22" name="bidirectional/backward_lstm_1/while/add_1/Output_0/Data_/sink_port_0" type="Result" version="opset1">
						<input>
							<port id="0">
								<dim>1</dim>
								<dim>256</dim>
							</port>
						</input>
					</layer>
					<layer id="23" name="bidirectional/backward_lstm_1/while/Sigmoid_2" type="Sigmoid" version="opset1">
						<input>
							<port id="0">
								<dim>1</dim>
								<dim>256</dim>
							</port>
						</input>
						<output>
							<port id="1" precision="FP16">
								<dim>1</dim>
								<dim>256</dim>
							</port>
						</output>
					</layer>
					<layer id="24" name="bidirectional/backward_lstm_1/while/Tanh_1" type="Tanh" version="opset1">
						<input>
							<port id="0">
								<dim>1</dim>
								<dim>256</dim>
							</port>
						</input>
						<output>
							<port id="1" precision="FP16">
								<dim>1</dim>
								<dim>256</dim>
							</port>
						</output>
					</layer>
					<layer id="25" name="bidirectional/backward_lstm_1/while/mul_3" type="Multiply" version="opset1">
						<input>
							<port id="0">
								<dim>1</dim>
								<dim>256</dim>
							</port>
							<port id="1">
								<dim>1</dim>
								<dim>256</dim>
							</port>
						</input>
						<output>
							<port id="2" precision="FP16">
								<dim>1</dim>
								<dim>256</dim>
							</port>
						</output>
					</layer>
					<layer id="26" name="bidirectional/backward_lstm_1/while/mul_3/Output_0/Data_/sink_port_0" type="Result" version="opset1">
						<input>
							<port id="0">
								<dim>1</dim>
								<dim>256</dim>
							</port>
						</input>
					</layer>
					<layer id="27" name="58_const" type="Const" version="opset1">
						<data element_type="i64" offset="286274" shape="1" size="8"/>
						<output>
							<port id="1" precision="I64">
								<dim>1</dim>
							</port>
						</output>
					</layer>
					<layer id="28" name="bidirectional/backward_lstm_1/while/mul_3/Output_0/Data_/OutputUnsqueeze" type="Unsqueeze" version="opset1">
						<input>
							<port id="0">
								<dim>1</dim>
								<dim>256</dim>
							</port>
							<port id="1">
								<dim>1</dim>
							</port>
						</input>
						<output>
							<port id="2" precision="FP16">
								<dim>1</dim>
								<dim>1</dim>
								<dim>256</dim>
							</port>
						</output>
					</layer>
					<layer id="29" name="60/sink_port_0" type="Result" version="opset1">
						<input>
							<port id="0">
								<dim>1</dim>
								<dim>1</dim>
								<dim>256</dim>
							</port>
						</input>
					</layer>
				</layers>
				<edges>
					<edge from-layer="0" from-port="0" to-layer="2" to-port="0"/>
					<edge from-layer="1" from-port="1" to-layer="2" to-port="1"/>
					<edge from-layer="2" from-port="2" to-layer="4" to-port="0"/>
					<edge from-layer="3" from-port="1" to-layer="4" to-port="1"/>
					<edge from-layer="4" from-port="2" to-layer="6" to-port="0"/>
					<edge from-layer="5" from-port="1" to-layer="6" to-port="1"/>
					<edge from-layer="7" from-port="0" to-layer="9" to-port="0"/>
					<edge from-layer="8" from-port="1" to-layer="9" to-port="1"/>
					<edge from-layer="6" from-port="2" to-layer="10" to-port="0"/>
					<edge from-layer="9" from-port="2" to-layer="10" to-port="1"/>
					<edge from-layer="10" from-port="2" to-layer="12" to-port="0"/>
					<edge from-layer="11" from-port="1" to-layer="12" to-port="1"/>
					<edge from-layer="12" from-port="2" to-layer="14" to-port="0"/>
					<edge from-layer="13" from-port="1" to-layer="14" to-port="1"/>
					<edge from-layer="14" from-port="3" to-layer="15" to-port="0"/>
					<edge from-layer="15" from-port="1" to-layer="17" to-port="0"/>
					<edge from-layer="16" from-port="0" to-layer="17" to-port="1"/>
					<edge from-layer="14" from-port="2" to-layer="18" to-port="0"/>
					<edge from-layer="14" from-port="4" to-layer="19" to-port="0"/>
					<edge from-layer="18" from-port="1" to-layer="20" to-port="0"/>
					<edge from-layer="19" from-port="1" to-layer="20" to-port="1"/>
					<edge from-layer="17" from-port="2" to-layer="21" to-port="0"/>
					<edge from-layer="20" from-port="2" to-layer="21" to-port="1"/>
					<edge from-layer="21" from-port="2" to-layer="22" to-port="0"/>
					<edge from-layer="14" from-port="5" to-layer="23" to-port="0"/>
					<edge from-layer="21" from-port="2" to-layer="24" to-port="0"/>
					<edge from-layer="23" from-port="1" to-layer="25" to-port="0"/>
					<edge from-layer="24" from-port="1" to-layer="25" to-port="1"/>
					<edge from-layer="25" from-port="2" to-layer="26" to-port="0"/>
					<edge from-layer="25" from-port="2" to-layer="28" to-port="0"/>
					<edge from-layer="27" from-port="1" to-layer="28" to-port="1"/>
					<edge from-layer="28" from-port="2" to-layer="29" to-port="0"/>
				</edges>
			</body>
		</layer>
		<layer id="52" name="bidirectional/backward_lstm_1/transpose_1/Cast_19440_const" type="Const" version="opset1">
			<data element_type="i64" offset="185148" shape="3" size="24"/>
			<output>
				<port id="1" precision="I64">
					<dim>3</dim>
				</port>
			</output>
		</layer>
		<layer id="53" name="bidirectional/backward_lstm_1/transpose_1" type="Transpose" version="opset1">
			<input>
				<port id="0">
					<dim>128</dim>
					<dim>1</dim>
					<dim>256</dim>
				</port>
				<port id="1">
					<dim>3</dim>
				</port>
			</input>
			<output>
				<port id="2" precision="FP16">
					<dim>1</dim>
					<dim>128</dim>
					<dim>256</dim>
				</port>
			</output>
		</layer>
		<layer id="54" name="35203522_const" type="Const" version="opset1">
			<data element_type="f16" offset="185684" shape="1" size="2"/>
			<output>
				<port id="1" precision="FP16">
					<dim>1</dim>
				</port>
			</output>
		</layer>
		<layer id="55" name="bidirectional/ReverseV2/ReverseSequence/" type="ReverseSequence" version="opset1">
			<data batch_axis="0" seq_axis="1"/>
			<input>
				<port id="0">
					<dim>1</dim>
					<dim>128</dim>
					<dim>256</dim>
				</port>
				<port id="1">
					<dim>1</dim>
				</port>
			</input>
			<output>
				<port id="2" precision="FP16">
					<dim>1</dim>
					<dim>128</dim>
					<dim>256</dim>
				</port>
			</output>
		</layer>
		<layer id="56" name="bidirectional/concat" type="Concat" version="opset1">
			<data axis="2"/>
			<input>
				<port id="0">
					<dim>1</dim>
					<dim>128</dim>
					<dim>256</dim>
				</port>
				<port id="1">
					<dim>1</dim>
					<dim>128</dim>
					<dim>256</dim>
				</port>
			</input>
			<output>
				<port id="2" precision="FP16">
					<dim>1</dim>
					<dim>128</dim>
					<dim>512</dim>
				</port>
			</output>
		</layer>
		<layer id="57" name="bidirectional_1/forward_lstm_1_1/transpose/Cast_19444_const" type="Const" version="opset1">
			<data element_type="i64" offset="185148" shape="3" size="24"/>
			<output>
				<port id="1" precision="I64">
					<dim>3</dim>
				</port>
			</output>
		</layer>
		<layer id="58" name="bidirectional_1/forward_lstm_1_1/transpose" type="Transpose" version="opset1">
			<input>
				<port id="0">
					<dim>1</dim>
					<dim>128</dim>
					<dim>512</dim>
				</port>
				<port id="1">
					<dim>3</dim>
				</port>
			</input>
			<output>
				<port id="2" precision="FP16">
					<dim>128</dim>
					<dim>1</dim>
					<dim>512</dim>
				</port>
			</output>
		</layer>
		<layer id="59" name="bidirectional_1/forward_lstm_1_1/while/Enter_2/Output_0/Data__const" type="Const" version="opset1">
			<data element_type="f16" offset="185172" shape="1,256" size="512"/>
			<output>
				<port id="1" precision="FP16">
					<dim>1</dim>
					<dim>256</dim>
				</port>
			</output>
		</layer>
		<layer id="60" name="bidirectional_1/forward_lstm_1_1/while/Enter_3/Output_0/Data__const" type="Const" version="opset1">
			<data element_type="f16" offset="185172" shape="1,256" size="512"/>
			<output>
				<port id="1" precision="FP16">
					<dim>1</dim>
					<dim>256</dim>
				</port>
			</output>
		</layer>
		<layer id="61" name="bidirectional_1/forward_lstm_1_1/while/LoopCond/TensorIteratorCondition_/TensorIterator" type="TensorIterator" version="opset1">
			<input>
				<port id="0">
					<dim>128</dim>
					<dim>1</dim>
					<dim>512</dim>
				</port>
				<port id="1">
					<dim>1</dim>
					<dim>256</dim>
				</port>
				<port id="2">
					<dim>1</dim>
					<dim>256</dim>
				</port>
			</input>
			<output>
				<port id="3" precision="FP16">
					<dim>128</dim>
					<dim>1</dim>
					<dim>256</dim>
				</port>
			</output>
			<port_map>
				<input external_port_id="2" internal_layer_id="16"/>
				<input external_port_id="1" internal_layer_id="7"/>
				<input axis="0" external_port_id="0" internal_layer_id="0"/>
				<output axis="0" external_port_id="3" internal_layer_id="29"/>
			</port_map>
			<back_edges>
				<edge from-layer="26" to-layer="7"/>
				<edge from-layer="22" to-layer="16"/>
			</back_edges>
			<body>
				<layers>
					<layer id="0" name="62" type="Parameter" version="opset1">
						<data element_type="f16" shape="1,1,512"/>
						<output>
							<port id="0" precision="FP16">
								<dim>1</dim>
								<dim>1</dim>
								<dim>512</dim>
							</port>
						</output>
					</layer>
					<layer id="1" name="55_const" type="Const" version="opset1">
						<data element_type="i64" offset="286274" shape="1" size="8"/>
						<output>
							<port id="1" precision="I64">
								<dim>1</dim>
							</port>
						</output>
					</layer>
					<layer id="2" name="bidirectional_1/forward_lstm_1_1/while/TensorArrayReadV3/Output_0/Data_/InputSqueeze" type="Squeeze" version="opset1">
						<input>
							<port id="0">
								<dim>1</dim>
								<dim>1</dim>
								<dim>512</dim>
							</port>
							<port id="1">
								<dim>1</dim>
							</port>
						</input>
						<output>
							<port id="2" precision="FP16">
								<dim>1</dim>
								<dim>512</dim>
							</port>
						</output>
					</layer>
					<layer id="3" name="bidirectional_1/forward_lstm_1_1/while/mul/Enter/Output_0/Data__const" type="Const" version="opset1">
						<data element_type="f16" offset="6584402" shape="1,512" size="1024"/>
						<output>
							<port id="1" precision="FP16">
								<dim>1</dim>
								<dim>512</dim>
							</port>
						</output>
					</layer>
					<layer id="4" name="bidirectional_1/forward_lstm_1_1/while/mul" type="Multiply" version="opset1">
						<input>
							<port id="0">
								<dim>1</dim>
								<dim>512</dim>
							</port>
							<port id="1">
								<dim>1</dim>
								<dim>512</dim>
							</port>
						</input>
						<output>
							<port id="2" precision="FP16">
								<dim>1</dim>
								<dim>512</dim>
							</port>
						</output>
					</layer>
					<layer id="5" name="bidirectional_1/forward_lstm_1_1/while/MatMul/1_port_transpose405_const" type="Const" version="opset1">
						<data element_type="f16" offset="6585426" shape="1024,512" size="1048576"/>
						<output>
							<port id="1" precision="FP16">
								<dim>1024</dim>
								<dim>512</dim>
							</port>
						</output>
					</layer>
					<layer id="6" name="bidirectional_1/forward_lstm_1_1/while/MatMul" type="MatMul" version="opset1">
						<data transpose_a="False" transpose_b="True"/>
						<input>
							<port id="0">
								<dim>1</dim>
								<dim>512</dim>
							</port>
							<port id="1">
								<dim>1024</dim>
								<dim>512</dim>
							</port>
						</input>
						<output>
							<port id="2" precision="FP16">
								<dim>1</dim>
								<dim>1024</dim>
							</port>
						</output>
					</layer>
					<layer id="7" name="64" type="Parameter" version="opset1">
						<data element_type="f16" shape="1,256"/>
						<output>
							<port id="0" precision="FP16">
								<dim>1</dim>
								<dim>256</dim>
							</port>
						</output>
					</layer>
					<layer id="8" name="bidirectional_1/forward_lstm_1_1/while/MatMul_1/1_port_transpose401_const" type="Const" version="opset1">
						<data element_type="f16" offset="7634002" shape="1024,256" size="524288"/>
						<output>
							<port id="1" precision="FP16">
								<dim>1024</dim>
								<dim>256</dim>
							</port>
						</output>
					</layer>
					<layer id="9" name="bidirectional_1/forward_lstm_1_1/while/MatMul_1" type="MatMul" version="opset1">
						<data transpose_a="False" transpose_b="True"/>
						<input>
							<port id="0">
								<dim>1</dim>
								<dim>256</dim>
							</port>
							<port id="1">
								<dim>1024</dim>
								<dim>256</dim>
							</port>
						</input>
						<output>
							<port id="2" precision="FP16">
								<dim>1</dim>
								<dim>1024</dim>
							</port>
						</output>
					</layer>
					<layer id="10" name="bidirectional_1/forward_lstm_1_1/while/add" type="Add" version="opset1">
						<input>
							<port id="0">
								<dim>1</dim>
								<dim>1024</dim>
							</port>
							<port id="1">
								<dim>1</dim>
								<dim>1024</dim>
							</port>
						</input>
						<output>
							<port id="2" precision="FP16">
								<dim>1</dim>
								<dim>1024</dim>
							</port>
						</output>
					</layer>
					<layer id="11" name="bidirectional_1/forward_lstm_1_1/while/BiasAdd/ReadVariableOp/Output_0/Data__const" type="Const" version="opset1">
						<data element_type="f16" offset="8158290" shape="1024" size="2048"/>
						<output>
							<port id="1" precision="FP16">
								<dim>1024</dim>
							</port>
						</output>
					</layer>
					<layer id="12" name="bidirectional_1/forward_lstm_1_1/while/BiasAdd/Add" type="Add" version="opset1">
						<input>
							<port id="0">
								<dim>1</dim>
								<dim>1024</dim>
							</port>
							<port id="1">
								<dim>1024</dim>
							</port>
						</input>
						<output>
							<port id="2" precision="FP16">
								<dim>1</dim>
								<dim>1024</dim>
							</port>
						</output>
					</layer>
					<layer id="13" name="bidirectional_1/forward_lstm_1_1/while/split/split_dim/Output_0/Data__const" type="Const" version="opset1">
						<data element_type="i64" offset="3436618" shape="" size="8"/>
						<output>
							<port id="1" precision="I64"/>
						</output>
					</layer>
					<layer id="14" name="bidirectional_1/forward_lstm_1_1/while/split" type="Split" version="opset1">
						<data num_splits="4"/>
						<input>
							<port id="0">
								<dim>1</dim>
								<dim>1024</dim>
							</port>
							<port id="1"/>
						</input>
						<output>
							<port id="2" precision="FP16">
								<dim>1</dim>
								<dim>256</dim>
							</port>
							<port id="3" precision="FP16">
								<dim>1</dim>
								<dim>256</dim>
							</port>
							<port id="4" precision="FP16">
								<dim>1</dim>
								<dim>256</dim>
							</port>
							<port id="5" precision="FP16">
								<dim>1</dim>
								<dim>256</dim>
							</port>
						</output>
					</layer>
					<layer id="15" name="bidirectional_1/forward_lstm_1_1/while/Sigmoid_1" type="Sigmoid" version="opset1">
						<input>
							<port id="0">
								<dim>1</dim>
								<dim>256</dim>
							</port>
						</input>
						<output>
							<port id="1" precision="FP16">
								<dim>1</dim>
								<dim>256</dim>
							</port>
						</output>
					</layer>
					<layer id="16" name="66" type="Parameter" version="opset1">
						<data element_type="f16" shape="1,256"/>
						<output>
							<port id="0" precision="FP16">
								<dim>1</dim>
								<dim>256</dim>
							</port>
						</output>
					</layer>
					<layer id="17" name="bidirectional_1/forward_lstm_1_1/while/mul_1" type="Multiply" version="opset1">
						<input>
							<port id="0">
								<dim>1</dim>
								<dim>256</dim>
							</port>
							<port id="1">
								<dim>1</dim>
								<dim>256</dim>
							</port>
						</input>
						<output>
							<port id="2" precision="FP16">
								<dim>1</dim>
								<dim>256</dim>
							</port>
						</output>
					</layer>
					<layer id="18" name="bidirectional_1/forward_lstm_1_1/while/Sigmoid" type="Sigmoid" version="opset1">
						<input>
							<port id="0">
								<dim>1</dim>
								<dim>256</dim>
							</port>
						</input>
						<output>
							<port id="1" precision="FP16">
								<dim>1</dim>
								<dim>256</dim>
							</port>
						</output>
					</layer>
					<layer id="19" name="bidirectional_1/forward_lstm_1_1/while/Tanh" type="Tanh" version="opset1">
						<input>
							<port id="0">
								<dim>1</dim>
								<dim>256</dim>
							</port>
						</input>
						<output>
							<port id="1" precision="FP16">
								<dim>1</dim>
								<dim>256</dim>
							</port>
						</output>
					</layer>
					<layer id="20" name="bidirectional_1/forward_lstm_1_1/while/mul_2" type="Multiply" version="opset1">
						<input>
							<port id="0">
								<dim>1</dim>
								<dim>256</dim>
							</port>
							<port id="1">
								<dim>1</dim>
								<dim>256</dim>
							</port>
						</input>
						<output>
							<port id="2" precision="FP16">
								<dim>1</dim>
								<dim>256</dim>
							</port>
						</output>
					</layer>
					<layer id="21" name="bidirectional_1/forward_lstm_1_1/while/add_1" type="Add" version="opset1">
						<input>
							<port id="0">
								<dim>1</dim>
								<dim>256</dim>
							</port>
							<port id="1">
								<dim>1</dim>
								<dim>256</dim>
							</port>
						</input>
						<output>
							<port id="2" precision="FP16">
								<dim>1</dim>
								<dim>256</dim>
							</port>
						</output>
					</layer>
					<layer id="22" name="bidirectional_1/forward_lstm_1_1/while/add_1/Output_0/Data_/sink_port_0" type="Result" version="opset1">
						<input>
							<port id="0">
								<dim>1</dim>
								<dim>256</dim>
							</port>
						</input>
					</layer>
					<layer id="23" name="bidirectional_1/forward_lstm_1_1/while/Sigmoid_2" type="Sigmoid" version="opset1">
						<input>
							<port id="0">
								<dim>1</dim>
								<dim>256</dim>
							</port>
						</input>
						<output>
							<port id="1" precision="FP16">
								<dim>1</dim>
								<dim>256</dim>
							</port>
						</output>
					</layer>
					<layer id="24" name="bidirectional_1/forward_lstm_1_1/while/Tanh_1" type="Tanh" version="opset1">
						<input>
							<port id="0">
								<dim>1</dim>
								<dim>256</dim>
							</port>
						</input>
						<output>
							<port id="1" precision="FP16">
								<dim>1</dim>
								<dim>256</dim>
							</port>
						</output>
					</layer>
					<layer id="25" name="bidirectional_1/forward_lstm_1_1/while/mul_3" type="Multiply" version="opset1">
						<input>
							<port id="0">
								<dim>1</dim>
								<dim>256</dim>
							</port>
							<port id="1">
								<dim>1</dim>
								<dim>256</dim>
							</port>
						</input>
						<output>
							<port id="2" precision="FP16">
								<dim>1</dim>
								<dim>256</dim>
							</port>
						</output>
					</layer>
					<layer id="26" name="bidirectional_1/forward_lstm_1_1/while/mul_3/Output_0/Data_/sink_port_0" type="Result" version="opset1">
						<input>
							<port id="0">
								<dim>1</dim>
								<dim>256</dim>
							</port>
						</input>
					</layer>
					<layer id="27" name="58_const" type="Const" version="opset1">
						<data element_type="i64" offset="286274" shape="1" size="8"/>
						<output>
							<port id="1" precision="I64">
								<dim>1</dim>
							</port>
						</output>
					</layer>
					<layer id="28" name="bidirectional_1/forward_lstm_1_1/while/mul_3/Output_0/Data_/OutputUnsqueeze" type="Unsqueeze" version="opset1">
						<input>
							<port id="0">
								<dim>1</dim>
								<dim>256</dim>
							</port>
							<port id="1">
								<dim>1</dim>
							</port>
						</input>
						<output>
							<port id="2" precision="FP16">
								<dim>1</dim>
								<dim>1</dim>
								<dim>256</dim>
							</port>
						</output>
					</layer>
					<layer id="29" name="60/sink_port_0" type="Result" version="opset1">
						<input>
							<port id="0">
								<dim>1</dim>
								<dim>1</dim>
								<dim>256</dim>
							</port>
						</input>
					</layer>
				</layers>
				<edges>
					<edge from-layer="0" from-port="0" to-layer="2" to-port="0"/>
					<edge from-layer="1" from-port="1" to-layer="2" to-port="1"/>
					<edge from-layer="2" from-port="2" to-layer="4" to-port="0"/>
					<edge from-layer="3" from-port="1" to-layer="4" to-port="1"/>
					<edge from-layer="4" from-port="2" to-layer="6" to-port="0"/>
					<edge from-layer="5" from-port="1" to-layer="6" to-port="1"/>
					<edge from-layer="7" from-port="0" to-layer="9" to-port="0"/>
					<edge from-layer="8" from-port="1" to-layer="9" to-port="1"/>
					<edge from-layer="6" from-port="2" to-layer="10" to-port="0"/>
					<edge from-layer="9" from-port="2" to-layer="10" to-port="1"/>
					<edge from-layer="10" from-port="2" to-layer="12" to-port="0"/>
					<edge from-layer="11" from-port="1" to-layer="12" to-port="1"/>
					<edge from-layer="12" from-port="2" to-layer="14" to-port="0"/>
					<edge from-layer="13" from-port="1" to-layer="14" to-port="1"/>
					<edge from-layer="14" from-port="3" to-layer="15" to-port="0"/>
					<edge from-layer="15" from-port="1" to-layer="17" to-port="0"/>
					<edge from-layer="16" from-port="0" to-layer="17" to-port="1"/>
					<edge from-layer="14" from-port="2" to-layer="18" to-port="0"/>
					<edge from-layer="14" from-port="4" to-layer="19" to-port="0"/>
					<edge from-layer="18" from-port="1" to-layer="20" to-port="0"/>
					<edge from-layer="19" from-port="1" to-layer="20" to-port="1"/>
					<edge from-layer="17" from-port="2" to-layer="21" to-port="0"/>
					<edge from-layer="20" from-port="2" to-layer="21" to-port="1"/>
					<edge from-layer="21" from-port="2" to-layer="22" to-port="0"/>
					<edge from-layer="14" from-port="5" to-layer="23" to-port="0"/>
					<edge from-layer="21" from-port="2" to-layer="24" to-port="0"/>
					<edge from-layer="23" from-port="1" to-layer="25" to-port="0"/>
					<edge from-layer="24" from-port="1" to-layer="25" to-port="1"/>
					<edge from-layer="25" from-port="2" to-layer="26" to-port="0"/>
					<edge from-layer="25" from-port="2" to-layer="28" to-port="0"/>
					<edge from-layer="27" from-port="1" to-layer="28" to-port="1"/>
					<edge from-layer="28" from-port="2" to-layer="29" to-port="0"/>
				</edges>
			</body>
		</layer>
		<layer id="62" name="bidirectional_1/forward_lstm_1_1/transpose_1/Cast_19420_const" type="Const" version="opset1">
			<data element_type="i64" offset="185148" shape="3" size="24"/>
			<output>
				<port id="1" precision="I64">
					<dim>3</dim>
				</port>
			</output>
		</layer>
		<layer id="63" name="bidirectional_1/forward_lstm_1_1/transpose_1" type="Transpose" version="opset1">
			<input>
				<port id="0">
					<dim>128</dim>
					<dim>1</dim>
					<dim>256</dim>
				</port>
				<port id="1">
					<dim>3</dim>
				</port>
			</input>
			<output>
				<port id="2" precision="FP16">
					<dim>1</dim>
					<dim>128</dim>
					<dim>256</dim>
				</port>
			</output>
		</layer>
		<layer id="64" name="bidirectional_1/backward_lstm_1_1/transpose/Cast_19448_const" type="Const" version="opset1">
			<data element_type="i64" offset="185148" shape="3" size="24"/>
			<output>
				<port id="1" precision="I64">
					<dim>3</dim>
				</port>
			</output>
		</layer>
		<layer id="65" name="bidirectional_1/backward_lstm_1_1/transpose" type="Transpose" version="opset1">
			<input>
				<port id="0">
					<dim>1</dim>
					<dim>128</dim>
					<dim>512</dim>
				</port>
				<port id="1">
					<dim>3</dim>
				</port>
			</input>
			<output>
				<port id="2" precision="FP16">
					<dim>128</dim>
					<dim>1</dim>
					<dim>512</dim>
				</port>
			</output>
		</layer>
		<layer id="66" name="35243526_const" type="Const" version="opset1">
			<data element_type="f16" offset="185684" shape="1" size="2"/>
			<output>
				<port id="1" precision="FP16">
					<dim>1</dim>
				</port>
			</output>
		</layer>
		<layer id="67" name="bidirectional_1/backward_lstm_1_1/ReverseV2/ReverseSequence/" type="ReverseSequence" version="opset1">
			<data batch_axis="1" seq_axis="0"/>
			<input>
				<port id="0">
					<dim>128</dim>
					<dim>1</dim>
					<dim>512</dim>
				</port>
				<port id="1">
					<dim>1</dim>
				</port>
			</input>
			<output>
				<port id="2" precision="FP16">
					<dim>128</dim>
					<dim>1</dim>
					<dim>512</dim>
				</port>
			</output>
		</layer>
		<layer id="68" name="bidirectional_1/backward_lstm_1_1/while/Enter_2/Output_0/Data__const" type="Const" version="opset1">
			<data element_type="f16" offset="185172" shape="1,256" size="512"/>
			<output>
				<port id="1" precision="FP16">
					<dim>1</dim>
					<dim>256</dim>
				</port>
			</output>
		</layer>
		<layer id="69" name="bidirectional_1/backward_lstm_1_1/while/Enter_3/Output_0/Data__const" type="Const" version="opset1">
			<data element_type="f16" offset="185172" shape="1,256" size="512"/>
			<output>
				<port id="1" precision="FP16">
					<dim>1</dim>
					<dim>256</dim>
				</port>
			</output>
		</layer>
		<layer id="70" name="bidirectional_1/backward_lstm_1_1/while/LoopCond/TensorIteratorCondition_/TensorIterator" type="TensorIterator" version="opset1">
			<input>
				<port id="0">
					<dim>128</dim>
					<dim>1</dim>
					<dim>512</dim>
				</port>
				<port id="1">
					<dim>1</dim>
					<dim>256</dim>
				</port>
				<port id="2">
					<dim>1</dim>
					<dim>256</dim>
				</port>
			</input>
			<output>
				<port id="3" precision="FP16">
					<dim>128</dim>
					<dim>1</dim>
					<dim>256</dim>
				</port>
			</output>
			<port_map>
				<input external_port_id="2" internal_layer_id="16"/>
				<input external_port_id="1" internal_layer_id="7"/>
				<input axis="0" external_port_id="0" internal_layer_id="0"/>
				<output axis="0" external_port_id="3" internal_layer_id="29"/>
			</port_map>
			<back_edges>
				<edge from-layer="22" to-layer="16"/>
				<edge from-layer="26" to-layer="7"/>
			</back_edges>
			<body>
				<layers>
					<layer id="0" name="62" type="Parameter" version="opset1">
						<data element_type="f16" shape="1,1,512"/>
						<output>
							<port id="0" precision="FP16">
								<dim>1</dim>
								<dim>1</dim>
								<dim>512</dim>
							</port>
						</output>
					</layer>
					<layer id="1" name="55_const" type="Const" version="opset1">
						<data element_type="i64" offset="286274" shape="1" size="8"/>
						<output>
							<port id="1" precision="I64">
								<dim>1</dim>
							</port>
						</output>
					</layer>
					<layer id="2" name="bidirectional_1/backward_lstm_1_1/while/TensorArrayReadV3/Output_0/Data_/InputSqueeze" type="Squeeze" version="opset1">
						<input>
							<port id="0">
								<dim>1</dim>
								<dim>1</dim>
								<dim>512</dim>
							</port>
							<port id="1">
								<dim>1</dim>
							</port>
						</input>
						<output>
							<port id="2" precision="FP16">
								<dim>1</dim>
								<dim>512</dim>
							</port>
						</output>
					</layer>
					<layer id="3" name="bidirectional_1/backward_lstm_1_1/while/mul/Enter/Output_0/Data__const" type="Const" version="opset1">
						<data element_type="f16" offset="6584402" shape="1,512" size="1024"/>
						<output>
							<port id="1" precision="FP16">
								<dim>1</dim>
								<dim>512</dim>
							</port>
						</output>
					</layer>
					<layer id="4" name="bidirectional_1/backward_lstm_1_1/while/mul" type="Multiply" version="opset1">
						<input>
							<port id="0">
								<dim>1</dim>
								<dim>512</dim>
							</port>
							<port id="1">
								<dim>1</dim>
								<dim>512</dim>
							</port>
						</input>
						<output>
							<port id="2" precision="FP16">
								<dim>1</dim>
								<dim>512</dim>
							</port>
						</output>
					</layer>
					<layer id="5" name="bidirectional_1/backward_lstm_1_1/while/MatMul/1_port_transpose401_const" type="Const" version="opset1">
						<data element_type="f16" offset="8160338" shape="1024,512" size="1048576"/>
						<output>
							<port id="1" precision="FP16">
								<dim>1024</dim>
								<dim>512</dim>
							</port>
						</output>
					</layer>
					<layer id="6" name="bidirectional_1/backward_lstm_1_1/while/MatMul" type="MatMul" version="opset1">
						<data transpose_a="False" transpose_b="True"/>
						<input>
							<port id="0">
								<dim>1</dim>
								<dim>512</dim>
							</port>
							<port id="1">
								<dim>1024</dim>
								<dim>512</dim>
							</port>
						</input>
						<output>
							<port id="2" precision="FP16">
								<dim>1</dim>
								<dim>1024</dim>
							</port>
						</output>
					</layer>
					<layer id="7" name="64" type="Parameter" version="opset1">
						<data element_type="f16" shape="1,256"/>
						<output>
							<port id="0" precision="FP16">
								<dim>1</dim>
								<dim>256</dim>
							</port>
						</output>
					</layer>
					<layer id="8" name="bidirectional_1/backward_lstm_1_1/while/MatMul_1/1_port_transpose405_const" type="Const" version="opset1">
						<data element_type="f16" offset="9208914" shape="1024,256" size="524288"/>
						<output>
							<port id="1" precision="FP16">
								<dim>1024</dim>
								<dim>256</dim>
							</port>
						</output>
					</layer>
					<layer id="9" name="bidirectional_1/backward_lstm_1_1/while/MatMul_1" type="MatMul" version="opset1">
						<data transpose_a="False" transpose_b="True"/>
						<input>
							<port id="0">
								<dim>1</dim>
								<dim>256</dim>
							</port>
							<port id="1">
								<dim>1024</dim>
								<dim>256</dim>
							</port>
						</input>
						<output>
							<port id="2" precision="FP16">
								<dim>1</dim>
								<dim>1024</dim>
							</port>
						</output>
					</layer>
					<layer id="10" name="bidirectional_1/backward_lstm_1_1/while/add" type="Add" version="opset1">
						<input>
							<port id="0">
								<dim>1</dim>
								<dim>1024</dim>
							</port>
							<port id="1">
								<dim>1</dim>
								<dim>1024</dim>
							</port>
						</input>
						<output>
							<port id="2" precision="FP16">
								<dim>1</dim>
								<dim>1024</dim>
							</port>
						</output>
					</layer>
					<layer id="11" name="bidirectional_1/backward_lstm_1_1/while/BiasAdd/ReadVariableOp/Output_0/Data__const" type="Const" version="opset1">
						<data element_type="f16" offset="9733202" shape="1024" size="2048"/>
						<output>
							<port id="1" precision="FP16">
								<dim>1024</dim>
							</port>
						</output>
					</layer>
					<layer id="12" name="bidirectional_1/backward_lstm_1_1/while/BiasAdd/Add" type="Add" version="opset1">
						<input>
							<port id="0">
								<dim>1</dim>
								<dim>1024</dim>
							</port>
							<port id="1">
								<dim>1024</dim>
							</port>
						</input>
						<output>
							<port id="2" precision="FP16">
								<dim>1</dim>
								<dim>1024</dim>
							</port>
						</output>
					</layer>
					<layer id="13" name="bidirectional_1/backward_lstm_1_1/while/split/split_dim/Output_0/Data__const" type="Const" version="opset1">
						<data element_type="i64" offset="3436618" shape="" size="8"/>
						<output>
							<port id="1" precision="I64"/>
						</output>
					</layer>
					<layer id="14" name="bidirectional_1/backward_lstm_1_1/while/split" type="Split" version="opset1">
						<data num_splits="4"/>
						<input>
							<port id="0">
								<dim>1</dim>
								<dim>1024</dim>
							</port>
							<port id="1"/>
						</input>
						<output>
							<port id="2" precision="FP16">
								<dim>1</dim>
								<dim>256</dim>
							</port>
							<port id="3" precision="FP16">
								<dim>1</dim>
								<dim>256</dim>
							</port>
							<port id="4" precision="FP16">
								<dim>1</dim>
								<dim>256</dim>
							</port>
							<port id="5" precision="FP16">
								<dim>1</dim>
								<dim>256</dim>
							</port>
						</output>
					</layer>
					<layer id="15" name="bidirectional_1/backward_lstm_1_1/while/Sigmoid_1" type="Sigmoid" version="opset1">
						<input>
							<port id="0">
								<dim>1</dim>
								<dim>256</dim>
							</port>
						</input>
						<output>
							<port id="1" precision="FP16">
								<dim>1</dim>
								<dim>256</dim>
							</port>
						</output>
					</layer>
					<layer id="16" name="66" type="Parameter" version="opset1">
						<data element_type="f16" shape="1,256"/>
						<output>
							<port id="0" precision="FP16">
								<dim>1</dim>
								<dim>256</dim>
							</port>
						</output>
					</layer>
					<layer id="17" name="bidirectional_1/backward_lstm_1_1/while/mul_1" type="Multiply" version="opset1">
						<input>
							<port id="0">
								<dim>1</dim>
								<dim>256</dim>
							</port>
							<port id="1">
								<dim>1</dim>
								<dim>256</dim>
							</port>
						</input>
						<output>
							<port id="2" precision="FP16">
								<dim>1</dim>
								<dim>256</dim>
							</port>
						</output>
					</layer>
					<layer id="18" name="bidirectional_1/backward_lstm_1_1/while/Sigmoid" type="Sigmoid" version="opset1">
						<input>
							<port id="0">
								<dim>1</dim>
								<dim>256</dim>
							</port>
						</input>
						<output>
							<port id="1" precision="FP16">
								<dim>1</dim>
								<dim>256</dim>
							</port>
						</output>
					</layer>
					<layer id="19" name="bidirectional_1/backward_lstm_1_1/while/Tanh" type="Tanh" version="opset1">
						<input>
							<port id="0">
								<dim>1</dim>
								<dim>256</dim>
							</port>
						</input>
						<output>
							<port id="1" precision="FP16">
								<dim>1</dim>
								<dim>256</dim>
							</port>
						</output>
					</layer>
					<layer id="20" name="bidirectional_1/backward_lstm_1_1/while/mul_2" type="Multiply" version="opset1">
						<input>
							<port id="0">
								<dim>1</dim>
								<dim>256</dim>
							</port>
							<port id="1">
								<dim>1</dim>
								<dim>256</dim>
							</port>
						</input>
						<output>
							<port id="2" precision="FP16">
								<dim>1</dim>
								<dim>256</dim>
							</port>
						</output>
					</layer>
					<layer id="21" name="bidirectional_1/backward_lstm_1_1/while/add_1" type="Add" version="opset1">
						<input>
							<port id="0">
								<dim>1</dim>
								<dim>256</dim>
							</port>
							<port id="1">
								<dim>1</dim>
								<dim>256</dim>
							</port>
						</input>
						<output>
							<port id="2" precision="FP16">
								<dim>1</dim>
								<dim>256</dim>
							</port>
						</output>
					</layer>
					<layer id="22" name="bidirectional_1/backward_lstm_1_1/while/add_1/Output_0/Data_/sink_port_0" type="Result" version="opset1">
						<input>
							<port id="0">
								<dim>1</dim>
								<dim>256</dim>
							</port>
						</input>
					</layer>
					<layer id="23" name="bidirectional_1/backward_lstm_1_1/while/Sigmoid_2" type="Sigmoid" version="opset1">
						<input>
							<port id="0">
								<dim>1</dim>
								<dim>256</dim>
							</port>
						</input>
						<output>
							<port id="1" precision="FP16">
								<dim>1</dim>
								<dim>256</dim>
							</port>
						</output>
					</layer>
					<layer id="24" name="bidirectional_1/backward_lstm_1_1/while/Tanh_1" type="Tanh" version="opset1">
						<input>
							<port id="0">
								<dim>1</dim>
								<dim>256</dim>
							</port>
						</input>
						<output>
							<port id="1" precision="FP16">
								<dim>1</dim>
								<dim>256</dim>
							</port>
						</output>
					</layer>
					<layer id="25" name="bidirectional_1/backward_lstm_1_1/while/mul_3" type="Multiply" version="opset1">
						<input>
							<port id="0">
								<dim>1</dim>
								<dim>256</dim>
							</port>
							<port id="1">
								<dim>1</dim>
								<dim>256</dim>
							</port>
						</input>
						<output>
							<port id="2" precision="FP16">
								<dim>1</dim>
								<dim>256</dim>
							</port>
						</output>
					</layer>
					<layer id="26" name="bidirectional_1/backward_lstm_1_1/while/mul_3/Output_0/Data_/sink_port_0" type="Result" version="opset1">
						<input>
							<port id="0">
								<dim>1</dim>
								<dim>256</dim>
							</port>
						</input>
					</layer>
					<layer id="27" name="58_const" type="Const" version="opset1">
						<data element_type="i64" offset="286274" shape="1" size="8"/>
						<output>
							<port id="1" precision="I64">
								<dim>1</dim>
							</port>
						</output>
					</layer>
					<layer id="28" name="bidirectional_1/backward_lstm_1_1/while/mul_3/Output_0/Data_/OutputUnsqueeze" type="Unsqueeze" version="opset1">
						<input>
							<port id="0">
								<dim>1</dim>
								<dim>256</dim>
							</port>
							<port id="1">
								<dim>1</dim>
							</port>
						</input>
						<output>
							<port id="2" precision="FP16">
								<dim>1</dim>
								<dim>1</dim>
								<dim>256</dim>
							</port>
						</output>
					</layer>
					<layer id="29" name="60/sink_port_0" type="Result" version="opset1">
						<input>
							<port id="0">
								<dim>1</dim>
								<dim>1</dim>
								<dim>256</dim>
							</port>
						</input>
					</layer>
				</layers>
				<edges>
					<edge from-layer="0" from-port="0" to-layer="2" to-port="0"/>
					<edge from-layer="1" from-port="1" to-layer="2" to-port="1"/>
					<edge from-layer="2" from-port="2" to-layer="4" to-port="0"/>
					<edge from-layer="3" from-port="1" to-layer="4" to-port="1"/>
					<edge from-layer="4" from-port="2" to-layer="6" to-port="0"/>
					<edge from-layer="5" from-port="1" to-layer="6" to-port="1"/>
					<edge from-layer="7" from-port="0" to-layer="9" to-port="0"/>
					<edge from-layer="8" from-port="1" to-layer="9" to-port="1"/>
					<edge from-layer="6" from-port="2" to-layer="10" to-port="0"/>
					<edge from-layer="9" from-port="2" to-layer="10" to-port="1"/>
					<edge from-layer="10" from-port="2" to-layer="12" to-port="0"/>
					<edge from-layer="11" from-port="1" to-layer="12" to-port="1"/>
					<edge from-layer="12" from-port="2" to-layer="14" to-port="0"/>
					<edge from-layer="13" from-port="1" to-layer="14" to-port="1"/>
					<edge from-layer="14" from-port="3" to-layer="15" to-port="0"/>
					<edge from-layer="15" from-port="1" to-layer="17" to-port="0"/>
					<edge from-layer="16" from-port="0" to-layer="17" to-port="1"/>
					<edge from-layer="14" from-port="2" to-layer="18" to-port="0"/>
					<edge from-layer="14" from-port="4" to-layer="19" to-port="0"/>
					<edge from-layer="18" from-port="1" to-layer="20" to-port="0"/>
					<edge from-layer="19" from-port="1" to-layer="20" to-port="1"/>
					<edge from-layer="17" from-port="2" to-layer="21" to-port="0"/>
					<edge from-layer="20" from-port="2" to-layer="21" to-port="1"/>
					<edge from-layer="21" from-port="2" to-layer="22" to-port="0"/>
					<edge from-layer="14" from-port="5" to-layer="23" to-port="0"/>
					<edge from-layer="21" from-port="2" to-layer="24" to-port="0"/>
					<edge from-layer="23" from-port="1" to-layer="25" to-port="0"/>
					<edge from-layer="24" from-port="1" to-layer="25" to-port="1"/>
					<edge from-layer="25" from-port="2" to-layer="26" to-port="0"/>
					<edge from-layer="25" from-port="2" to-layer="28" to-port="0"/>
					<edge from-layer="27" from-port="1" to-layer="28" to-port="1"/>
					<edge from-layer="28" from-port="2" to-layer="29" to-port="0"/>
				</edges>
			</body>
		</layer>
		<layer id="71" name="bidirectional_1/backward_lstm_1_1/transpose_1/Cast_19458_const" type="Const" version="opset1">
			<data element_type="i64" offset="185148" shape="3" size="24"/>
			<output>
				<port id="1" precision="I64">
					<dim>3</dim>
				</port>
			</output>
		</layer>
		<layer id="72" name="bidirectional_1/backward_lstm_1_1/transpose_1" type="Transpose" version="opset1">
			<input>
				<port id="0">
					<dim>128</dim>
					<dim>1</dim>
					<dim>256</dim>
				</port>
				<port id="1">
					<dim>3</dim>
				</port>
			</input>
			<output>
				<port id="2" precision="FP16">
					<dim>1</dim>
					<dim>128</dim>
					<dim>256</dim>
				</port>
			</output>
		</layer>
		<layer id="73" name="35283530_const" type="Const" version="opset1">
			<data element_type="f16" offset="185684" shape="1" size="2"/>
			<output>
				<port id="1" precision="FP16">
					<dim>1</dim>
				</port>
			</output>
		</layer>
		<layer id="74" name="bidirectional_1/ReverseV2/ReverseSequence/" type="ReverseSequence" version="opset1">
			<data batch_axis="0" seq_axis="1"/>
			<input>
				<port id="0">
					<dim>1</dim>
					<dim>128</dim>
					<dim>256</dim>
				</port>
				<port id="1">
					<dim>1</dim>
				</port>
			</input>
			<output>
				<port id="2" precision="FP16">
					<dim>1</dim>
					<dim>128</dim>
					<dim>256</dim>
				</port>
			</output>
		</layer>
		<layer id="75" name="bidirectional_1/concat" type="Concat" version="opset1">
			<data axis="2"/>
			<input>
				<port id="0">
					<dim>1</dim>
					<dim>128</dim>
					<dim>256</dim>
				</port>
				<port id="1">
					<dim>1</dim>
					<dim>128</dim>
					<dim>256</dim>
				</port>
			</input>
			<output>
				<port id="2" precision="FP16">
					<dim>1</dim>
					<dim>128</dim>
					<dim>512</dim>
				</port>
			</output>
		</layer>
		<layer id="76" name="bidirectional_2/forward_lstm_2_1/transpose/Cast_19452_const" type="Const" version="opset1">
			<data element_type="i64" offset="185148" shape="3" size="24"/>
			<output>
				<port id="1" precision="I64">
					<dim>3</dim>
				</port>
			</output>
		</layer>
		<layer id="77" name="bidirectional_2/forward_lstm_2_1/transpose" type="Transpose" version="opset1">
			<input>
				<port id="0">
					<dim>1</dim>
					<dim>128</dim>
					<dim>512</dim>
				</port>
				<port id="1">
					<dim>3</dim>
				</port>
			</input>
			<output>
				<port id="2" precision="FP16">
					<dim>128</dim>
					<dim>1</dim>
					<dim>512</dim>
				</port>
			</output>
		</layer>
		<layer id="78" name="bidirectional_2/forward_lstm_2_1/while/Enter_2/Output_0/Data__const" type="Const" version="opset1">
			<data element_type="f16" offset="185172" shape="1,256" size="512"/>
			<output>
				<port id="1" precision="FP16">
					<dim>1</dim>
					<dim>256</dim>
				</port>
			</output>
		</layer>
		<layer id="79" name="bidirectional_2/forward_lstm_2_1/while/Enter_3/Output_0/Data__const" type="Const" version="opset1">
			<data element_type="f16" offset="185172" shape="1,256" size="512"/>
			<output>
				<port id="1" precision="FP16">
					<dim>1</dim>
					<dim>256</dim>
				</port>
			</output>
		</layer>
		<layer id="80" name="bidirectional_2/forward_lstm_2_1/while/LoopCond/TensorIteratorCondition_/TensorIterator" type="TensorIterator" version="opset1">
			<input>
				<port id="0">
					<dim>128</dim>
					<dim>1</dim>
					<dim>512</dim>
				</port>
				<port id="1">
					<dim>1</dim>
					<dim>256</dim>
				</port>
				<port id="2">
					<dim>1</dim>
					<dim>256</dim>
				</port>
			</input>
			<output>
				<port id="3" precision="FP16">
					<dim>128</dim>
					<dim>1</dim>
					<dim>256</dim>
				</port>
			</output>
			<port_map>
				<input external_port_id="2" internal_layer_id="16"/>
				<input external_port_id="1" internal_layer_id="7"/>
				<input axis="0" external_port_id="0" internal_layer_id="0"/>
				<output axis="0" external_port_id="3" internal_layer_id="29"/>
			</port_map>
			<back_edges>
				<edge from-layer="22" to-layer="16"/>
				<edge from-layer="26" to-layer="7"/>
			</back_edges>
			<body>
				<layers>
					<layer id="0" name="62" type="Parameter" version="opset1">
						<data element_type="f16" shape="1,1,512"/>
						<output>
							<port id="0" precision="FP16">
								<dim>1</dim>
								<dim>1</dim>
								<dim>512</dim>
							</port>
						</output>
					</layer>
					<layer id="1" name="55_const" type="Const" version="opset1">
						<data element_type="i64" offset="286274" shape="1" size="8"/>
						<output>
							<port id="1" precision="I64">
								<dim>1</dim>
							</port>
						</output>
					</layer>
					<layer id="2" name="bidirectional_2/forward_lstm_2_1/while/TensorArrayReadV3/Output_0/Data_/InputSqueeze" type="Squeeze" version="opset1">
						<input>
							<port id="0">
								<dim>1</dim>
								<dim>1</dim>
								<dim>512</dim>
							</port>
							<port id="1">
								<dim>1</dim>
							</port>
						</input>
						<output>
							<port id="2" precision="FP16">
								<dim>1</dim>
								<dim>512</dim>
							</port>
						</output>
					</layer>
					<layer id="3" name="bidirectional_2/forward_lstm_2_1/while/mul/Enter/Output_0/Data__const" type="Const" version="opset1">
						<data element_type="f16" offset="6584402" shape="1,512" size="1024"/>
						<output>
							<port id="1" precision="FP16">
								<dim>1</dim>
								<dim>512</dim>
							</port>
						</output>
					</layer>
					<layer id="4" name="bidirectional_2/forward_lstm_2_1/while/mul" type="Multiply" version="opset1">
						<input>
							<port id="0">
								<dim>1</dim>
								<dim>512</dim>
							</port>
							<port id="1">
								<dim>1</dim>
								<dim>512</dim>
							</port>
						</input>
						<output>
							<port id="2" precision="FP16">
								<dim>1</dim>
								<dim>512</dim>
							</port>
						</output>
					</layer>
					<layer id="5" name="bidirectional_2/forward_lstm_2_1/while/MatMul/1_port_transpose401_const" type="Const" version="opset1">
						<data element_type="f16" offset="9735250" shape="1024,512" size="1048576"/>
						<output>
							<port id="1" precision="FP16">
								<dim>1024</dim>
								<dim>512</dim>
							</port>
						</output>
					</layer>
					<layer id="6" name="bidirectional_2/forward_lstm_2_1/while/MatMul" type="MatMul" version="opset1">
						<data transpose_a="False" transpose_b="True"/>
						<input>
							<port id="0">
								<dim>1</dim>
								<dim>512</dim>
							</port>
							<port id="1">
								<dim>1024</dim>
								<dim>512</dim>
							</port>
						</input>
						<output>
							<port id="2" precision="FP16">
								<dim>1</dim>
								<dim>1024</dim>
							</port>
						</output>
					</layer>
					<layer id="7" name="64" type="Parameter" version="opset1">
						<data element_type="f16" shape="1,256"/>
						<output>
							<port id="0" precision="FP16">
								<dim>1</dim>
								<dim>256</dim>
							</port>
						</output>
					</layer>
					<layer id="8" name="bidirectional_2/forward_lstm_2_1/while/MatMul_1/1_port_transpose405_const" type="Const" version="opset1">
						<data element_type="f16" offset="10783826" shape="1024,256" size="524288"/>
						<output>
							<port id="1" precision="FP16">
								<dim>1024</dim>
								<dim>256</dim>
							</port>
						</output>
					</layer>
					<layer id="9" name="bidirectional_2/forward_lstm_2_1/while/MatMul_1" type="MatMul" version="opset1">
						<data transpose_a="False" transpose_b="True"/>
						<input>
							<port id="0">
								<dim>1</dim>
								<dim>256</dim>
							</port>
							<port id="1">
								<dim>1024</dim>
								<dim>256</dim>
							</port>
						</input>
						<output>
							<port id="2" precision="FP16">
								<dim>1</dim>
								<dim>1024</dim>
							</port>
						</output>
					</layer>
					<layer id="10" name="bidirectional_2/forward_lstm_2_1/while/add" type="Add" version="opset1">
						<input>
							<port id="0">
								<dim>1</dim>
								<dim>1024</dim>
							</port>
							<port id="1">
								<dim>1</dim>
								<dim>1024</dim>
							</port>
						</input>
						<output>
							<port id="2" precision="FP16">
								<dim>1</dim>
								<dim>1024</dim>
							</port>
						</output>
					</layer>
					<layer id="11" name="bidirectional_2/forward_lstm_2_1/while/BiasAdd/ReadVariableOp/Output_0/Data__const" type="Const" version="opset1">
						<data element_type="f16" offset="11308114" shape="1024" size="2048"/>
						<output>
							<port id="1" precision="FP16">
								<dim>1024</dim>
							</port>
						</output>
					</layer>
					<layer id="12" name="bidirectional_2/forward_lstm_2_1/while/BiasAdd/Add" type="Add" version="opset1">
						<input>
							<port id="0">
								<dim>1</dim>
								<dim>1024</dim>
							</port>
							<port id="1">
								<dim>1024</dim>
							</port>
						</input>
						<output>
							<port id="2" precision="FP16">
								<dim>1</dim>
								<dim>1024</dim>
							</port>
						</output>
					</layer>
					<layer id="13" name="bidirectional_2/forward_lstm_2_1/while/split/split_dim/Output_0/Data__const" type="Const" version="opset1">
						<data element_type="i64" offset="3436618" shape="" size="8"/>
						<output>
							<port id="1" precision="I64"/>
						</output>
					</layer>
					<layer id="14" name="bidirectional_2/forward_lstm_2_1/while/split" type="Split" version="opset1">
						<data num_splits="4"/>
						<input>
							<port id="0">
								<dim>1</dim>
								<dim>1024</dim>
							</port>
							<port id="1"/>
						</input>
						<output>
							<port id="2" precision="FP16">
								<dim>1</dim>
								<dim>256</dim>
							</port>
							<port id="3" precision="FP16">
								<dim>1</dim>
								<dim>256</dim>
							</port>
							<port id="4" precision="FP16">
								<dim>1</dim>
								<dim>256</dim>
							</port>
							<port id="5" precision="FP16">
								<dim>1</dim>
								<dim>256</dim>
							</port>
						</output>
					</layer>
					<layer id="15" name="bidirectional_2/forward_lstm_2_1/while/Sigmoid_1" type="Sigmoid" version="opset1">
						<input>
							<port id="0">
								<dim>1</dim>
								<dim>256</dim>
							</port>
						</input>
						<output>
							<port id="1" precision="FP16">
								<dim>1</dim>
								<dim>256</dim>
							</port>
						</output>
					</layer>
					<layer id="16" name="66" type="Parameter" version="opset1">
						<data element_type="f16" shape="1,256"/>
						<output>
							<port id="0" precision="FP16">
								<dim>1</dim>
								<dim>256</dim>
							</port>
						</output>
					</layer>
					<layer id="17" name="bidirectional_2/forward_lstm_2_1/while/mul_1" type="Multiply" version="opset1">
						<input>
							<port id="0">
								<dim>1</dim>
								<dim>256</dim>
							</port>
							<port id="1">
								<dim>1</dim>
								<dim>256</dim>
							</port>
						</input>
						<output>
							<port id="2" precision="FP16">
								<dim>1</dim>
								<dim>256</dim>
							</port>
						</output>
					</layer>
					<layer id="18" name="bidirectional_2/forward_lstm_2_1/while/Sigmoid" type="Sigmoid" version="opset1">
						<input>
							<port id="0">
								<dim>1</dim>
								<dim>256</dim>
							</port>
						</input>
						<output>
							<port id="1" precision="FP16">
								<dim>1</dim>
								<dim>256</dim>
							</port>
						</output>
					</layer>
					<layer id="19" name="bidirectional_2/forward_lstm_2_1/while/Tanh" type="Tanh" version="opset1">
						<input>
							<port id="0">
								<dim>1</dim>
								<dim>256</dim>
							</port>
						</input>
						<output>
							<port id="1" precision="FP16">
								<dim>1</dim>
								<dim>256</dim>
							</port>
						</output>
					</layer>
					<layer id="20" name="bidirectional_2/forward_lstm_2_1/while/mul_2" type="Multiply" version="opset1">
						<input>
							<port id="0">
								<dim>1</dim>
								<dim>256</dim>
							</port>
							<port id="1">
								<dim>1</dim>
								<dim>256</dim>
							</port>
						</input>
						<output>
							<port id="2" precision="FP16">
								<dim>1</dim>
								<dim>256</dim>
							</port>
						</output>
					</layer>
					<layer id="21" name="bidirectional_2/forward_lstm_2_1/while/add_1" type="Add" version="opset1">
						<input>
							<port id="0">
								<dim>1</dim>
								<dim>256</dim>
							</port>
							<port id="1">
								<dim>1</dim>
								<dim>256</dim>
							</port>
						</input>
						<output>
							<port id="2" precision="FP16">
								<dim>1</dim>
								<dim>256</dim>
							</port>
						</output>
					</layer>
					<layer id="22" name="bidirectional_2/forward_lstm_2_1/while/add_1/Output_0/Data_/sink_port_0" type="Result" version="opset1">
						<input>
							<port id="0">
								<dim>1</dim>
								<dim>256</dim>
							</port>
						</input>
					</layer>
					<layer id="23" name="bidirectional_2/forward_lstm_2_1/while/Sigmoid_2" type="Sigmoid" version="opset1">
						<input>
							<port id="0">
								<dim>1</dim>
								<dim>256</dim>
							</port>
						</input>
						<output>
							<port id="1" precision="FP16">
								<dim>1</dim>
								<dim>256</dim>
							</port>
						</output>
					</layer>
					<layer id="24" name="bidirectional_2/forward_lstm_2_1/while/Tanh_1" type="Tanh" version="opset1">
						<input>
							<port id="0">
								<dim>1</dim>
								<dim>256</dim>
							</port>
						</input>
						<output>
							<port id="1" precision="FP16">
								<dim>1</dim>
								<dim>256</dim>
							</port>
						</output>
					</layer>
					<layer id="25" name="bidirectional_2/forward_lstm_2_1/while/mul_3" type="Multiply" version="opset1">
						<input>
							<port id="0">
								<dim>1</dim>
								<dim>256</dim>
							</port>
							<port id="1">
								<dim>1</dim>
								<dim>256</dim>
							</port>
						</input>
						<output>
							<port id="2" precision="FP16">
								<dim>1</dim>
								<dim>256</dim>
							</port>
						</output>
					</layer>
					<layer id="26" name="bidirectional_2/forward_lstm_2_1/while/mul_3/Output_0/Data_/sink_port_0" type="Result" version="opset1">
						<input>
							<port id="0">
								<dim>1</dim>
								<dim>256</dim>
							</port>
						</input>
					</layer>
					<layer id="27" name="58_const" type="Const" version="opset1">
						<data element_type="i64" offset="286274" shape="1" size="8"/>
						<output>
							<port id="1" precision="I64">
								<dim>1</dim>
							</port>
						</output>
					</layer>
					<layer id="28" name="bidirectional_2/forward_lstm_2_1/while/mul_3/Output_0/Data_/OutputUnsqueeze" type="Unsqueeze" version="opset1">
						<input>
							<port id="0">
								<dim>1</dim>
								<dim>256</dim>
							</port>
							<port id="1">
								<dim>1</dim>
							</port>
						</input>
						<output>
							<port id="2" precision="FP16">
								<dim>1</dim>
								<dim>1</dim>
								<dim>256</dim>
							</port>
						</output>
					</layer>
					<layer id="29" name="60/sink_port_0" type="Result" version="opset1">
						<input>
							<port id="0">
								<dim>1</dim>
								<dim>1</dim>
								<dim>256</dim>
							</port>
						</input>
					</layer>
				</layers>
				<edges>
					<edge from-layer="0" from-port="0" to-layer="2" to-port="0"/>
					<edge from-layer="1" from-port="1" to-layer="2" to-port="1"/>
					<edge from-layer="2" from-port="2" to-layer="4" to-port="0"/>
					<edge from-layer="3" from-port="1" to-layer="4" to-port="1"/>
					<edge from-layer="4" from-port="2" to-layer="6" to-port="0"/>
					<edge from-layer="5" from-port="1" to-layer="6" to-port="1"/>
					<edge from-layer="7" from-port="0" to-layer="9" to-port="0"/>
					<edge from-layer="8" from-port="1" to-layer="9" to-port="1"/>
					<edge from-layer="6" from-port="2" to-layer="10" to-port="0"/>
					<edge from-layer="9" from-port="2" to-layer="10" to-port="1"/>
					<edge from-layer="10" from-port="2" to-layer="12" to-port="0"/>
					<edge from-layer="11" from-port="1" to-layer="12" to-port="1"/>
					<edge from-layer="12" from-port="2" to-layer="14" to-port="0"/>
					<edge from-layer="13" from-port="1" to-layer="14" to-port="1"/>
					<edge from-layer="14" from-port="3" to-layer="15" to-port="0"/>
					<edge from-layer="15" from-port="1" to-layer="17" to-port="0"/>
					<edge from-layer="16" from-port="0" to-layer="17" to-port="1"/>
					<edge from-layer="14" from-port="2" to-layer="18" to-port="0"/>
					<edge from-layer="14" from-port="4" to-layer="19" to-port="0"/>
					<edge from-layer="18" from-port="1" to-layer="20" to-port="0"/>
					<edge from-layer="19" from-port="1" to-layer="20" to-port="1"/>
					<edge from-layer="17" from-port="2" to-layer="21" to-port="0"/>
					<edge from-layer="20" from-port="2" to-layer="21" to-port="1"/>
					<edge from-layer="21" from-port="2" to-layer="22" to-port="0"/>
					<edge from-layer="14" from-port="5" to-layer="23" to-port="0"/>
					<edge from-layer="21" from-port="2" to-layer="24" to-port="0"/>
					<edge from-layer="23" from-port="1" to-layer="25" to-port="0"/>
					<edge from-layer="24" from-port="1" to-layer="25" to-port="1"/>
					<edge from-layer="25" from-port="2" to-layer="26" to-port="0"/>
					<edge from-layer="25" from-port="2" to-layer="28" to-port="0"/>
					<edge from-layer="27" from-port="1" to-layer="28" to-port="1"/>
					<edge from-layer="28" from-port="2" to-layer="29" to-port="0"/>
				</edges>
			</body>
		</layer>
		<layer id="81" name="bidirectional_2/forward_lstm_2_1/transpose_1/Cast_19426_const" type="Const" version="opset1">
			<data element_type="i64" offset="185148" shape="3" size="24"/>
			<output>
				<port id="1" precision="I64">
					<dim>3</dim>
				</port>
			</output>
		</layer>
		<layer id="82" name="bidirectional_2/forward_lstm_2_1/transpose_1" type="Transpose" version="opset1">
			<input>
				<port id="0">
					<dim>128</dim>
					<dim>1</dim>
					<dim>256</dim>
				</port>
				<port id="1">
					<dim>3</dim>
				</port>
			</input>
			<output>
				<port id="2" precision="FP16">
					<dim>1</dim>
					<dim>128</dim>
					<dim>256</dim>
				</port>
			</output>
		</layer>
		<layer id="83" name="bidirectional_2/backward_lstm_2_1/transpose/Cast_19436_const" type="Const" version="opset1">
			<data element_type="i64" offset="185148" shape="3" size="24"/>
			<output>
				<port id="1" precision="I64">
					<dim>3</dim>
				</port>
			</output>
		</layer>
		<layer id="84" name="bidirectional_2/backward_lstm_2_1/transpose" type="Transpose" version="opset1">
			<input>
				<port id="0">
					<dim>1</dim>
					<dim>128</dim>
					<dim>512</dim>
				</port>
				<port id="1">
					<dim>3</dim>
				</port>
			</input>
			<output>
				<port id="2" precision="FP16">
					<dim>128</dim>
					<dim>1</dim>
					<dim>512</dim>
				</port>
			</output>
		</layer>
		<layer id="85" name="35323534_const" type="Const" version="opset1">
			<data element_type="f16" offset="185684" shape="1" size="2"/>
			<output>
				<port id="1" precision="FP16">
					<dim>1</dim>
				</port>
			</output>
		</layer>
		<layer id="86" name="bidirectional_2/backward_lstm_2_1/ReverseV2/ReverseSequence/" type="ReverseSequence" version="opset1">
			<data batch_axis="1" seq_axis="0"/>
			<input>
				<port id="0">
					<dim>128</dim>
					<dim>1</dim>
					<dim>512</dim>
				</port>
				<port id="1">
					<dim>1</dim>
				</port>
			</input>
			<output>
				<port id="2" precision="FP16">
					<dim>128</dim>
					<dim>1</dim>
					<dim>512</dim>
				</port>
			</output>
		</layer>
		<layer id="87" name="bidirectional_2/backward_lstm_2_1/while/Enter_2/Output_0/Data__const" type="Const" version="opset1">
			<data element_type="f16" offset="185172" shape="1,256" size="512"/>
			<output>
				<port id="1" precision="FP16">
					<dim>1</dim>
					<dim>256</dim>
				</port>
			</output>
		</layer>
		<layer id="88" name="bidirectional_2/backward_lstm_2_1/while/Enter_3/Output_0/Data__const" type="Const" version="opset1">
			<data element_type="f16" offset="185172" shape="1,256" size="512"/>
			<output>
				<port id="1" precision="FP16">
					<dim>1</dim>
					<dim>256</dim>
				</port>
			</output>
		</layer>
		<layer id="89" name="bidirectional_2/backward_lstm_2_1/while/LoopCond/TensorIteratorCondition_/TensorIterator" type="TensorIterator" version="opset1">
			<input>
				<port id="0">
					<dim>128</dim>
					<dim>1</dim>
					<dim>512</dim>
				</port>
				<port id="1">
					<dim>1</dim>
					<dim>256</dim>
				</port>
				<port id="2">
					<dim>1</dim>
					<dim>256</dim>
				</port>
			</input>
			<output>
				<port id="3" precision="FP16">
					<dim>128</dim>
					<dim>1</dim>
					<dim>256</dim>
				</port>
			</output>
			<port_map>
				<input external_port_id="2" internal_layer_id="16"/>
				<input external_port_id="1" internal_layer_id="7"/>
				<input axis="0" external_port_id="0" internal_layer_id="0"/>
				<output axis="0" external_port_id="3" internal_layer_id="29"/>
			</port_map>
			<back_edges>
				<edge from-layer="26" to-layer="7"/>
				<edge from-layer="22" to-layer="16"/>
			</back_edges>
			<body>
				<layers>
					<layer id="0" name="62" type="Parameter" version="opset1">
						<data element_type="f16" shape="1,1,512"/>
						<output>
							<port id="0" precision="FP16">
								<dim>1</dim>
								<dim>1</dim>
								<dim>512</dim>
							</port>
						</output>
					</layer>
					<layer id="1" name="55_const" type="Const" version="opset1">
						<data element_type="i64" offset="286274" shape="1" size="8"/>
						<output>
							<port id="1" precision="I64">
								<dim>1</dim>
							</port>
						</output>
					</layer>
					<layer id="2" name="bidirectional_2/backward_lstm_2_1/while/TensorArrayReadV3/Output_0/Data_/InputSqueeze" type="Squeeze" version="opset1">
						<input>
							<port id="0">
								<dim>1</dim>
								<dim>1</dim>
								<dim>512</dim>
							</port>
							<port id="1">
								<dim>1</dim>
							</port>
						</input>
						<output>
							<port id="2" precision="FP16">
								<dim>1</dim>
								<dim>512</dim>
							</port>
						</output>
					</layer>
					<layer id="3" name="bidirectional_2/backward_lstm_2_1/while/mul/Enter/Output_0/Data__const" type="Const" version="opset1">
						<data element_type="f16" offset="6584402" shape="1,512" size="1024"/>
						<output>
							<port id="1" precision="FP16">
								<dim>1</dim>
								<dim>512</dim>
							</port>
						</output>
					</layer>
					<layer id="4" name="bidirectional_2/backward_lstm_2_1/while/mul" type="Multiply" version="opset1">
						<input>
							<port id="0">
								<dim>1</dim>
								<dim>512</dim>
							</port>
							<port id="1">
								<dim>1</dim>
								<dim>512</dim>
							</port>
						</input>
						<output>
							<port id="2" precision="FP16">
								<dim>1</dim>
								<dim>512</dim>
							</port>
						</output>
					</layer>
					<layer id="5" name="bidirectional_2/backward_lstm_2_1/while/MatMul/1_port_transpose405_const" type="Const" version="opset1">
						<data element_type="f16" offset="11310162" shape="1024,512" size="1048576"/>
						<output>
							<port id="1" precision="FP16">
								<dim>1024</dim>
								<dim>512</dim>
							</port>
						</output>
					</layer>
					<layer id="6" name="bidirectional_2/backward_lstm_2_1/while/MatMul" type="MatMul" version="opset1">
						<data transpose_a="False" transpose_b="True"/>
						<input>
							<port id="0">
								<dim>1</dim>
								<dim>512</dim>
							</port>
							<port id="1">
								<dim>1024</dim>
								<dim>512</dim>
							</port>
						</input>
						<output>
							<port id="2" precision="FP16">
								<dim>1</dim>
								<dim>1024</dim>
							</port>
						</output>
					</layer>
					<layer id="7" name="64" type="Parameter" version="opset1">
						<data element_type="f16" shape="1,256"/>
						<output>
							<port id="0" precision="FP16">
								<dim>1</dim>
								<dim>256</dim>
							</port>
						</output>
					</layer>
					<layer id="8" name="bidirectional_2/backward_lstm_2_1/while/MatMul_1/1_port_transpose401_const" type="Const" version="opset1">
						<data element_type="f16" offset="12358738" shape="1024,256" size="524288"/>
						<output>
							<port id="1" precision="FP16">
								<dim>1024</dim>
								<dim>256</dim>
							</port>
						</output>
					</layer>
					<layer id="9" name="bidirectional_2/backward_lstm_2_1/while/MatMul_1" type="MatMul" version="opset1">
						<data transpose_a="False" transpose_b="True"/>
						<input>
							<port id="0">
								<dim>1</dim>
								<dim>256</dim>
							</port>
							<port id="1">
								<dim>1024</dim>
								<dim>256</dim>
							</port>
						</input>
						<output>
							<port id="2" precision="FP16">
								<dim>1</dim>
								<dim>1024</dim>
							</port>
						</output>
					</layer>
					<layer id="10" name="bidirectional_2/backward_lstm_2_1/while/add" type="Add" version="opset1">
						<input>
							<port id="0">
								<dim>1</dim>
								<dim>1024</dim>
							</port>
							<port id="1">
								<dim>1</dim>
								<dim>1024</dim>
							</port>
						</input>
						<output>
							<port id="2" precision="FP16">
								<dim>1</dim>
								<dim>1024</dim>
							</port>
						</output>
					</layer>
					<layer id="11" name="bidirectional_2/backward_lstm_2_1/while/BiasAdd/ReadVariableOp/Output_0/Data__const" type="Const" version="opset1">
						<data element_type="f16" offset="12883026" shape="1024" size="2048"/>
						<output>
							<port id="1" precision="FP16">
								<dim>1024</dim>
							</port>
						</output>
					</layer>
					<layer id="12" name="bidirectional_2/backward_lstm_2_1/while/BiasAdd/Add" type="Add" version="opset1">
						<input>
							<port id="0">
								<dim>1</dim>
								<dim>1024</dim>
							</port>
							<port id="1">
								<dim>1024</dim>
							</port>
						</input>
						<output>
							<port id="2" precision="FP16">
								<dim>1</dim>
								<dim>1024</dim>
							</port>
						</output>
					</layer>
					<layer id="13" name="bidirectional_2/backward_lstm_2_1/while/split/split_dim/Output_0/Data__const" type="Const" version="opset1">
						<data element_type="i64" offset="3436618" shape="" size="8"/>
						<output>
							<port id="1" precision="I64"/>
						</output>
					</layer>
					<layer id="14" name="bidirectional_2/backward_lstm_2_1/while/split" type="Split" version="opset1">
						<data num_splits="4"/>
						<input>
							<port id="0">
								<dim>1</dim>
								<dim>1024</dim>
							</port>
							<port id="1"/>
						</input>
						<output>
							<port id="2" precision="FP16">
								<dim>1</dim>
								<dim>256</dim>
							</port>
							<port id="3" precision="FP16">
								<dim>1</dim>
								<dim>256</dim>
							</port>
							<port id="4" precision="FP16">
								<dim>1</dim>
								<dim>256</dim>
							</port>
							<port id="5" precision="FP16">
								<dim>1</dim>
								<dim>256</dim>
							</port>
						</output>
					</layer>
					<layer id="15" name="bidirectional_2/backward_lstm_2_1/while/Sigmoid_1" type="Sigmoid" version="opset1">
						<input>
							<port id="0">
								<dim>1</dim>
								<dim>256</dim>
							</port>
						</input>
						<output>
							<port id="1" precision="FP16">
								<dim>1</dim>
								<dim>256</dim>
							</port>
						</output>
					</layer>
					<layer id="16" name="66" type="Parameter" version="opset1">
						<data element_type="f16" shape="1,256"/>
						<output>
							<port id="0" precision="FP16">
								<dim>1</dim>
								<dim>256</dim>
							</port>
						</output>
					</layer>
					<layer id="17" name="bidirectional_2/backward_lstm_2_1/while/mul_1" type="Multiply" version="opset1">
						<input>
							<port id="0">
								<dim>1</dim>
								<dim>256</dim>
							</port>
							<port id="1">
								<dim>1</dim>
								<dim>256</dim>
							</port>
						</input>
						<output>
							<port id="2" precision="FP16">
								<dim>1</dim>
								<dim>256</dim>
							</port>
						</output>
					</layer>
					<layer id="18" name="bidirectional_2/backward_lstm_2_1/while/Sigmoid" type="Sigmoid" version="opset1">
						<input>
							<port id="0">
								<dim>1</dim>
								<dim>256</dim>
							</port>
						</input>
						<output>
							<port id="1" precision="FP16">
								<dim>1</dim>
								<dim>256</dim>
							</port>
						</output>
					</layer>
					<layer id="19" name="bidirectional_2/backward_lstm_2_1/while/Tanh" type="Tanh" version="opset1">
						<input>
							<port id="0">
								<dim>1</dim>
								<dim>256</dim>
							</port>
						</input>
						<output>
							<port id="1" precision="FP16">
								<dim>1</dim>
								<dim>256</dim>
							</port>
						</output>
					</layer>
					<layer id="20" name="bidirectional_2/backward_lstm_2_1/while/mul_2" type="Multiply" version="opset1">
						<input>
							<port id="0">
								<dim>1</dim>
								<dim>256</dim>
							</port>
							<port id="1">
								<dim>1</dim>
								<dim>256</dim>
							</port>
						</input>
						<output>
							<port id="2" precision="FP16">
								<dim>1</dim>
								<dim>256</dim>
							</port>
						</output>
					</layer>
					<layer id="21" name="bidirectional_2/backward_lstm_2_1/while/add_1" type="Add" version="opset1">
						<input>
							<port id="0">
								<dim>1</dim>
								<dim>256</dim>
							</port>
							<port id="1">
								<dim>1</dim>
								<dim>256</dim>
							</port>
						</input>
						<output>
							<port id="2" precision="FP16">
								<dim>1</dim>
								<dim>256</dim>
							</port>
						</output>
					</layer>
					<layer id="22" name="bidirectional_2/backward_lstm_2_1/while/add_1/Output_0/Data_/sink_port_0" type="Result" version="opset1">
						<input>
							<port id="0">
								<dim>1</dim>
								<dim>256</dim>
							</port>
						</input>
					</layer>
					<layer id="23" name="bidirectional_2/backward_lstm_2_1/while/Sigmoid_2" type="Sigmoid" version="opset1">
						<input>
							<port id="0">
								<dim>1</dim>
								<dim>256</dim>
							</port>
						</input>
						<output>
							<port id="1" precision="FP16">
								<dim>1</dim>
								<dim>256</dim>
							</port>
						</output>
					</layer>
					<layer id="24" name="bidirectional_2/backward_lstm_2_1/while/Tanh_1" type="Tanh" version="opset1">
						<input>
							<port id="0">
								<dim>1</dim>
								<dim>256</dim>
							</port>
						</input>
						<output>
							<port id="1" precision="FP16">
								<dim>1</dim>
								<dim>256</dim>
							</port>
						</output>
					</layer>
					<layer id="25" name="bidirectional_2/backward_lstm_2_1/while/mul_3" type="Multiply" version="opset1">
						<input>
							<port id="0">
								<dim>1</dim>
								<dim>256</dim>
							</port>
							<port id="1">
								<dim>1</dim>
								<dim>256</dim>
							</port>
						</input>
						<output>
							<port id="2" precision="FP16">
								<dim>1</dim>
								<dim>256</dim>
							</port>
						</output>
					</layer>
					<layer id="26" name="bidirectional_2/backward_lstm_2_1/while/mul_3/Output_0/Data_/sink_port_0" type="Result" version="opset1">
						<input>
							<port id="0">
								<dim>1</dim>
								<dim>256</dim>
							</port>
						</input>
					</layer>
					<layer id="27" name="58_const" type="Const" version="opset1">
						<data element_type="i64" offset="286274" shape="1" size="8"/>
						<output>
							<port id="1" precision="I64">
								<dim>1</dim>
							</port>
						</output>
					</layer>
					<layer id="28" name="bidirectional_2/backward_lstm_2_1/while/mul_3/Output_0/Data_/OutputUnsqueeze" type="Unsqueeze" version="opset1">
						<input>
							<port id="0">
								<dim>1</dim>
								<dim>256</dim>
							</port>
							<port id="1">
								<dim>1</dim>
							</port>
						</input>
						<output>
							<port id="2" precision="FP16">
								<dim>1</dim>
								<dim>1</dim>
								<dim>256</dim>
							</port>
						</output>
					</layer>
					<layer id="29" name="60/sink_port_0" type="Result" version="opset1">
						<input>
							<port id="0">
								<dim>1</dim>
								<dim>1</dim>
								<dim>256</dim>
							</port>
						</input>
					</layer>
				</layers>
				<edges>
					<edge from-layer="0" from-port="0" to-layer="2" to-port="0"/>
					<edge from-layer="1" from-port="1" to-layer="2" to-port="1"/>
					<edge from-layer="2" from-port="2" to-layer="4" to-port="0"/>
					<edge from-layer="3" from-port="1" to-layer="4" to-port="1"/>
					<edge from-layer="4" from-port="2" to-layer="6" to-port="0"/>
					<edge from-layer="5" from-port="1" to-layer="6" to-port="1"/>
					<edge from-layer="7" from-port="0" to-layer="9" to-port="0"/>
					<edge from-layer="8" from-port="1" to-layer="9" to-port="1"/>
					<edge from-layer="6" from-port="2" to-layer="10" to-port="0"/>
					<edge from-layer="9" from-port="2" to-layer="10" to-port="1"/>
					<edge from-layer="10" from-port="2" to-layer="12" to-port="0"/>
					<edge from-layer="11" from-port="1" to-layer="12" to-port="1"/>
					<edge from-layer="12" from-port="2" to-layer="14" to-port="0"/>
					<edge from-layer="13" from-port="1" to-layer="14" to-port="1"/>
					<edge from-layer="14" from-port="3" to-layer="15" to-port="0"/>
					<edge from-layer="15" from-port="1" to-layer="17" to-port="0"/>
					<edge from-layer="16" from-port="0" to-layer="17" to-port="1"/>
					<edge from-layer="14" from-port="2" to-layer="18" to-port="0"/>
					<edge from-layer="14" from-port="4" to-layer="19" to-port="0"/>
					<edge from-layer="18" from-port="1" to-layer="20" to-port="0"/>
					<edge from-layer="19" from-port="1" to-layer="20" to-port="1"/>
					<edge from-layer="17" from-port="2" to-layer="21" to-port="0"/>
					<edge from-layer="20" from-port="2" to-layer="21" to-port="1"/>
					<edge from-layer="21" from-port="2" to-layer="22" to-port="0"/>
					<edge from-layer="14" from-port="5" to-layer="23" to-port="0"/>
					<edge from-layer="21" from-port="2" to-layer="24" to-port="0"/>
					<edge from-layer="23" from-port="1" to-layer="25" to-port="0"/>
					<edge from-layer="24" from-port="1" to-layer="25" to-port="1"/>
					<edge from-layer="25" from-port="2" to-layer="26" to-port="0"/>
					<edge from-layer="25" from-port="2" to-layer="28" to-port="0"/>
					<edge from-layer="27" from-port="1" to-layer="28" to-port="1"/>
					<edge from-layer="28" from-port="2" to-layer="29" to-port="0"/>
				</edges>
			</body>
		</layer>
		<layer id="90" name="bidirectional_2/backward_lstm_2_1/transpose_1/Cast_19462_const" type="Const" version="opset1">
			<data element_type="i64" offset="185148" shape="3" size="24"/>
			<output>
				<port id="1" precision="I64">
					<dim>3</dim>
				</port>
			</output>
		</layer>
		<layer id="91" name="bidirectional_2/backward_lstm_2_1/transpose_1" type="Transpose" version="opset1">
			<input>
				<port id="0">
					<dim>128</dim>
					<dim>1</dim>
					<dim>256</dim>
				</port>
				<port id="1">
					<dim>3</dim>
				</port>
			</input>
			<output>
				<port id="2" precision="FP16">
					<dim>1</dim>
					<dim>128</dim>
					<dim>256</dim>
				</port>
			</output>
		</layer>
		<layer id="92" name="35403542_const" type="Const" version="opset1">
			<data element_type="f16" offset="185684" shape="1" size="2"/>
			<output>
				<port id="1" precision="FP16">
					<dim>1</dim>
				</port>
			</output>
		</layer>
		<layer id="93" name="bidirectional_2/ReverseV2/ReverseSequence/" type="ReverseSequence" version="opset1">
			<data batch_axis="0" seq_axis="1"/>
			<input>
				<port id="0">
					<dim>1</dim>
					<dim>128</dim>
					<dim>256</dim>
				</port>
				<port id="1">
					<dim>1</dim>
				</port>
			</input>
			<output>
				<port id="2" precision="FP16">
					<dim>1</dim>
					<dim>128</dim>
					<dim>256</dim>
				</port>
			</output>
		</layer>
		<layer id="94" name="bidirectional_2/concat" type="Concat" version="opset1">
			<data axis="2"/>
			<input>
				<port id="0">
					<dim>1</dim>
					<dim>128</dim>
					<dim>256</dim>
				</port>
				<port id="1">
					<dim>1</dim>
					<dim>128</dim>
					<dim>256</dim>
				</port>
			</input>
			<output>
				<port id="2" precision="FP16">
					<dim>1</dim>
					<dim>128</dim>
					<dim>512</dim>
				</port>
			</output>
		</layer>
		<layer id="95" name="bidirectional_3/forward_lstm_3_1/transpose/Cast_19456_const" type="Const" version="opset1">
			<data element_type="i64" offset="185148" shape="3" size="24"/>
			<output>
				<port id="1" precision="I64">
					<dim>3</dim>
				</port>
			</output>
		</layer>
		<layer id="96" name="bidirectional_3/forward_lstm_3_1/transpose" type="Transpose" version="opset1">
			<input>
				<port id="0">
					<dim>1</dim>
					<dim>128</dim>
					<dim>512</dim>
				</port>
				<port id="1">
					<dim>3</dim>
				</port>
			</input>
			<output>
				<port id="2" precision="FP16">
					<dim>128</dim>
					<dim>1</dim>
					<dim>512</dim>
				</port>
			</output>
		</layer>
		<layer id="97" name="bidirectional_3/forward_lstm_3_1/while/Enter_2/Output_0/Data__const" type="Const" version="opset1">
			<data element_type="f16" offset="185172" shape="1,256" size="512"/>
			<output>
				<port id="1" precision="FP16">
					<dim>1</dim>
					<dim>256</dim>
				</port>
			</output>
		</layer>
		<layer id="98" name="bidirectional_3/forward_lstm_3_1/while/Enter_3/Output_0/Data__const" type="Const" version="opset1">
			<data element_type="f16" offset="185172" shape="1,256" size="512"/>
			<output>
				<port id="1" precision="FP16">
					<dim>1</dim>
					<dim>256</dim>
				</port>
			</output>
		</layer>
		<layer id="99" name="bidirectional_3/forward_lstm_3_1/while/LoopCond/TensorIteratorCondition_/TensorIterator" type="TensorIterator" version="opset1">
			<input>
				<port id="0">
					<dim>128</dim>
					<dim>1</dim>
					<dim>512</dim>
				</port>
				<port id="1">
					<dim>1</dim>
					<dim>256</dim>
				</port>
				<port id="2">
					<dim>1</dim>
					<dim>256</dim>
				</port>
			</input>
			<output>
				<port id="3" precision="FP16">
					<dim>128</dim>
					<dim>1</dim>
					<dim>256</dim>
				</port>
			</output>
			<port_map>
				<input external_port_id="2" internal_layer_id="16"/>
				<input external_port_id="1" internal_layer_id="7"/>
				<input axis="0" external_port_id="0" internal_layer_id="0"/>
				<output axis="0" external_port_id="3" internal_layer_id="29"/>
			</port_map>
			<back_edges>
				<edge from-layer="26" to-layer="7"/>
				<edge from-layer="22" to-layer="16"/>
			</back_edges>
			<body>
				<layers>
					<layer id="0" name="62" type="Parameter" version="opset1">
						<data element_type="f16" shape="1,1,512"/>
						<output>
							<port id="0" precision="FP16">
								<dim>1</dim>
								<dim>1</dim>
								<dim>512</dim>
							</port>
						</output>
					</layer>
					<layer id="1" name="55_const" type="Const" version="opset1">
						<data element_type="i64" offset="286274" shape="1" size="8"/>
						<output>
							<port id="1" precision="I64">
								<dim>1</dim>
							</port>
						</output>
					</layer>
					<layer id="2" name="bidirectional_3/forward_lstm_3_1/while/TensorArrayReadV3/Output_0/Data_/InputSqueeze" type="Squeeze" version="opset1">
						<input>
							<port id="0">
								<dim>1</dim>
								<dim>1</dim>
								<dim>512</dim>
							</port>
							<port id="1">
								<dim>1</dim>
							</port>
						</input>
						<output>
							<port id="2" precision="FP16">
								<dim>1</dim>
								<dim>512</dim>
							</port>
						</output>
					</layer>
					<layer id="3" name="bidirectional_3/forward_lstm_3_1/while/mul/Enter/Output_0/Data__const" type="Const" version="opset1">
						<data element_type="f16" offset="6584402" shape="1,512" size="1024"/>
						<output>
							<port id="1" precision="FP16">
								<dim>1</dim>
								<dim>512</dim>
							</port>
						</output>
					</layer>
					<layer id="4" name="bidirectional_3/forward_lstm_3_1/while/mul" type="Multiply" version="opset1">
						<input>
							<port id="0">
								<dim>1</dim>
								<dim>512</dim>
							</port>
							<port id="1">
								<dim>1</dim>
								<dim>512</dim>
							</port>
						</input>
						<output>
							<port id="2" precision="FP16">
								<dim>1</dim>
								<dim>512</dim>
							</port>
						</output>
					</layer>
					<layer id="5" name="bidirectional_3/forward_lstm_3_1/while/MatMul/1_port_transpose405_const" type="Const" version="opset1">
						<data element_type="f16" offset="12885074" shape="1024,512" size="1048576"/>
						<output>
							<port id="1" precision="FP16">
								<dim>1024</dim>
								<dim>512</dim>
							</port>
						</output>
					</layer>
					<layer id="6" name="bidirectional_3/forward_lstm_3_1/while/MatMul" type="MatMul" version="opset1">
						<data transpose_a="False" transpose_b="True"/>
						<input>
							<port id="0">
								<dim>1</dim>
								<dim>512</dim>
							</port>
							<port id="1">
								<dim>1024</dim>
								<dim>512</dim>
							</port>
						</input>
						<output>
							<port id="2" precision="FP16">
								<dim>1</dim>
								<dim>1024</dim>
							</port>
						</output>
					</layer>
					<layer id="7" name="64" type="Parameter" version="opset1">
						<data element_type="f16" shape="1,256"/>
						<output>
							<port id="0" precision="FP16">
								<dim>1</dim>
								<dim>256</dim>
							</port>
						</output>
					</layer>
					<layer id="8" name="bidirectional_3/forward_lstm_3_1/while/MatMul_1/1_port_transpose401_const" type="Const" version="opset1">
						<data element_type="f16" offset="13933650" shape="1024,256" size="524288"/>
						<output>
							<port id="1" precision="FP16">
								<dim>1024</dim>
								<dim>256</dim>
							</port>
						</output>
					</layer>
					<layer id="9" name="bidirectional_3/forward_lstm_3_1/while/MatMul_1" type="MatMul" version="opset1">
						<data transpose_a="False" transpose_b="True"/>
						<input>
							<port id="0">
								<dim>1</dim>
								<dim>256</dim>
							</port>
							<port id="1">
								<dim>1024</dim>
								<dim>256</dim>
							</port>
						</input>
						<output>
							<port id="2" precision="FP16">
								<dim>1</dim>
								<dim>1024</dim>
							</port>
						</output>
					</layer>
					<layer id="10" name="bidirectional_3/forward_lstm_3_1/while/add" type="Add" version="opset1">
						<input>
							<port id="0">
								<dim>1</dim>
								<dim>1024</dim>
							</port>
							<port id="1">
								<dim>1</dim>
								<dim>1024</dim>
							</port>
						</input>
						<output>
							<port id="2" precision="FP16">
								<dim>1</dim>
								<dim>1024</dim>
							</port>
						</output>
					</layer>
					<layer id="11" name="bidirectional_3/forward_lstm_3_1/while/BiasAdd/ReadVariableOp/Output_0/Data__const" type="Const" version="opset1">
						<data element_type="f16" offset="14457938" shape="1024" size="2048"/>
						<output>
							<port id="1" precision="FP16">
								<dim>1024</dim>
							</port>
						</output>
					</layer>
					<layer id="12" name="bidirectional_3/forward_lstm_3_1/while/BiasAdd/Add" type="Add" version="opset1">
						<input>
							<port id="0">
								<dim>1</dim>
								<dim>1024</dim>
							</port>
							<port id="1">
								<dim>1024</dim>
							</port>
						</input>
						<output>
							<port id="2" precision="FP16">
								<dim>1</dim>
								<dim>1024</dim>
							</port>
						</output>
					</layer>
					<layer id="13" name="bidirectional_3/forward_lstm_3_1/while/split/split_dim/Output_0/Data__const" type="Const" version="opset1">
						<data element_type="i64" offset="3436618" shape="" size="8"/>
						<output>
							<port id="1" precision="I64"/>
						</output>
					</layer>
					<layer id="14" name="bidirectional_3/forward_lstm_3_1/while/split" type="Split" version="opset1">
						<data num_splits="4"/>
						<input>
							<port id="0">
								<dim>1</dim>
								<dim>1024</dim>
							</port>
							<port id="1"/>
						</input>
						<output>
							<port id="2" precision="FP16">
								<dim>1</dim>
								<dim>256</dim>
							</port>
							<port id="3" precision="FP16">
								<dim>1</dim>
								<dim>256</dim>
							</port>
							<port id="4" precision="FP16">
								<dim>1</dim>
								<dim>256</dim>
							</port>
							<port id="5" precision="FP16">
								<dim>1</dim>
								<dim>256</dim>
							</port>
						</output>
					</layer>
					<layer id="15" name="bidirectional_3/forward_lstm_3_1/while/Sigmoid_1" type="Sigmoid" version="opset1">
						<input>
							<port id="0">
								<dim>1</dim>
								<dim>256</dim>
							</port>
						</input>
						<output>
							<port id="1" precision="FP16">
								<dim>1</dim>
								<dim>256</dim>
							</port>
						</output>
					</layer>
					<layer id="16" name="66" type="Parameter" version="opset1">
						<data element_type="f16" shape="1,256"/>
						<output>
							<port id="0" precision="FP16">
								<dim>1</dim>
								<dim>256</dim>
							</port>
						</output>
					</layer>
					<layer id="17" name="bidirectional_3/forward_lstm_3_1/while/mul_1" type="Multiply" version="opset1">
						<input>
							<port id="0">
								<dim>1</dim>
								<dim>256</dim>
							</port>
							<port id="1">
								<dim>1</dim>
								<dim>256</dim>
							</port>
						</input>
						<output>
							<port id="2" precision="FP16">
								<dim>1</dim>
								<dim>256</dim>
							</port>
						</output>
					</layer>
					<layer id="18" name="bidirectional_3/forward_lstm_3_1/while/Sigmoid" type="Sigmoid" version="opset1">
						<input>
							<port id="0">
								<dim>1</dim>
								<dim>256</dim>
							</port>
						</input>
						<output>
							<port id="1" precision="FP16">
								<dim>1</dim>
								<dim>256</dim>
							</port>
						</output>
					</layer>
					<layer id="19" name="bidirectional_3/forward_lstm_3_1/while/Tanh" type="Tanh" version="opset1">
						<input>
							<port id="0">
								<dim>1</dim>
								<dim>256</dim>
							</port>
						</input>
						<output>
							<port id="1" precision="FP16">
								<dim>1</dim>
								<dim>256</dim>
							</port>
						</output>
					</layer>
					<layer id="20" name="bidirectional_3/forward_lstm_3_1/while/mul_2" type="Multiply" version="opset1">
						<input>
							<port id="0">
								<dim>1</dim>
								<dim>256</dim>
							</port>
							<port id="1">
								<dim>1</dim>
								<dim>256</dim>
							</port>
						</input>
						<output>
							<port id="2" precision="FP16">
								<dim>1</dim>
								<dim>256</dim>
							</port>
						</output>
					</layer>
					<layer id="21" name="bidirectional_3/forward_lstm_3_1/while/add_1" type="Add" version="opset1">
						<input>
							<port id="0">
								<dim>1</dim>
								<dim>256</dim>
							</port>
							<port id="1">
								<dim>1</dim>
								<dim>256</dim>
							</port>
						</input>
						<output>
							<port id="2" precision="FP16">
								<dim>1</dim>
								<dim>256</dim>
							</port>
						</output>
					</layer>
					<layer id="22" name="bidirectional_3/forward_lstm_3_1/while/add_1/Output_0/Data_/sink_port_0" type="Result" version="opset1">
						<input>
							<port id="0">
								<dim>1</dim>
								<dim>256</dim>
							</port>
						</input>
					</layer>
					<layer id="23" name="bidirectional_3/forward_lstm_3_1/while/Sigmoid_2" type="Sigmoid" version="opset1">
						<input>
							<port id="0">
								<dim>1</dim>
								<dim>256</dim>
							</port>
						</input>
						<output>
							<port id="1" precision="FP16">
								<dim>1</dim>
								<dim>256</dim>
							</port>
						</output>
					</layer>
					<layer id="24" name="bidirectional_3/forward_lstm_3_1/while/Tanh_1" type="Tanh" version="opset1">
						<input>
							<port id="0">
								<dim>1</dim>
								<dim>256</dim>
							</port>
						</input>
						<output>
							<port id="1" precision="FP16">
								<dim>1</dim>
								<dim>256</dim>
							</port>
						</output>
					</layer>
					<layer id="25" name="bidirectional_3/forward_lstm_3_1/while/mul_3" type="Multiply" version="opset1">
						<input>
							<port id="0">
								<dim>1</dim>
								<dim>256</dim>
							</port>
							<port id="1">
								<dim>1</dim>
								<dim>256</dim>
							</port>
						</input>
						<output>
							<port id="2" precision="FP16">
								<dim>1</dim>
								<dim>256</dim>
							</port>
						</output>
					</layer>
					<layer id="26" name="bidirectional_3/forward_lstm_3_1/while/mul_3/Output_0/Data_/sink_port_0" type="Result" version="opset1">
						<input>
							<port id="0">
								<dim>1</dim>
								<dim>256</dim>
							</port>
						</input>
					</layer>
					<layer id="27" name="58_const" type="Const" version="opset1">
						<data element_type="i64" offset="286274" shape="1" size="8"/>
						<output>
							<port id="1" precision="I64">
								<dim>1</dim>
							</port>
						</output>
					</layer>
					<layer id="28" name="bidirectional_3/forward_lstm_3_1/while/mul_3/Output_0/Data_/OutputUnsqueeze" type="Unsqueeze" version="opset1">
						<input>
							<port id="0">
								<dim>1</dim>
								<dim>256</dim>
							</port>
							<port id="1">
								<dim>1</dim>
							</port>
						</input>
						<output>
							<port id="2" precision="FP16">
								<dim>1</dim>
								<dim>1</dim>
								<dim>256</dim>
							</port>
						</output>
					</layer>
					<layer id="29" name="60/sink_port_0" type="Result" version="opset1">
						<input>
							<port id="0">
								<dim>1</dim>
								<dim>1</dim>
								<dim>256</dim>
							</port>
						</input>
					</layer>
				</layers>
				<edges>
					<edge from-layer="0" from-port="0" to-layer="2" to-port="0"/>
					<edge from-layer="1" from-port="1" to-layer="2" to-port="1"/>
					<edge from-layer="2" from-port="2" to-layer="4" to-port="0"/>
					<edge from-layer="3" from-port="1" to-layer="4" to-port="1"/>
					<edge from-layer="4" from-port="2" to-layer="6" to-port="0"/>
					<edge from-layer="5" from-port="1" to-layer="6" to-port="1"/>
					<edge from-layer="7" from-port="0" to-layer="9" to-port="0"/>
					<edge from-layer="8" from-port="1" to-layer="9" to-port="1"/>
					<edge from-layer="6" from-port="2" to-layer="10" to-port="0"/>
					<edge from-layer="9" from-port="2" to-layer="10" to-port="1"/>
					<edge from-layer="10" from-port="2" to-layer="12" to-port="0"/>
					<edge from-layer="11" from-port="1" to-layer="12" to-port="1"/>
					<edge from-layer="12" from-port="2" to-layer="14" to-port="0"/>
					<edge from-layer="13" from-port="1" to-layer="14" to-port="1"/>
					<edge from-layer="14" from-port="3" to-layer="15" to-port="0"/>
					<edge from-layer="15" from-port="1" to-layer="17" to-port="0"/>
					<edge from-layer="16" from-port="0" to-layer="17" to-port="1"/>
					<edge from-layer="14" from-port="2" to-layer="18" to-port="0"/>
					<edge from-layer="14" from-port="4" to-layer="19" to-port="0"/>
					<edge from-layer="18" from-port="1" to-layer="20" to-port="0"/>
					<edge from-layer="19" from-port="1" to-layer="20" to-port="1"/>
					<edge from-layer="17" from-port="2" to-layer="21" to-port="0"/>
					<edge from-layer="20" from-port="2" to-layer="21" to-port="1"/>
					<edge from-layer="21" from-port="2" to-layer="22" to-port="0"/>
					<edge from-layer="14" from-port="5" to-layer="23" to-port="0"/>
					<edge from-layer="21" from-port="2" to-layer="24" to-port="0"/>
					<edge from-layer="23" from-port="1" to-layer="25" to-port="0"/>
					<edge from-layer="24" from-port="1" to-layer="25" to-port="1"/>
					<edge from-layer="25" from-port="2" to-layer="26" to-port="0"/>
					<edge from-layer="25" from-port="2" to-layer="28" to-port="0"/>
					<edge from-layer="27" from-port="1" to-layer="28" to-port="1"/>
					<edge from-layer="28" from-port="2" to-layer="29" to-port="0"/>
				</edges>
			</body>
		</layer>
		<layer id="100" name="bidirectional_3/forward_lstm_3_1/transpose_1/Cast_19416_const" type="Const" version="opset1">
			<data element_type="i64" offset="185148" shape="3" size="24"/>
			<output>
				<port id="1" precision="I64">
					<dim>3</dim>
				</port>
			</output>
		</layer>
		<layer id="101" name="bidirectional_3/forward_lstm_3_1/transpose_1" type="Transpose" version="opset1">
			<input>
				<port id="0">
					<dim>128</dim>
					<dim>1</dim>
					<dim>256</dim>
				</port>
				<port id="1">
					<dim>3</dim>
				</port>
			</input>
			<output>
				<port id="2" precision="FP16">
					<dim>1</dim>
					<dim>128</dim>
					<dim>256</dim>
				</port>
			</output>
		</layer>
		<layer id="102" name="bidirectional_3/backward_lstm_3_1/transpose/Cast_19418_const" type="Const" version="opset1">
			<data element_type="i64" offset="185148" shape="3" size="24"/>
			<output>
				<port id="1" precision="I64">
					<dim>3</dim>
				</port>
			</output>
		</layer>
		<layer id="103" name="bidirectional_3/backward_lstm_3_1/transpose" type="Transpose" version="opset1">
			<input>
				<port id="0">
					<dim>1</dim>
					<dim>128</dim>
					<dim>512</dim>
				</port>
				<port id="1">
					<dim>3</dim>
				</port>
			</input>
			<output>
				<port id="2" precision="FP16">
					<dim>128</dim>
					<dim>1</dim>
					<dim>512</dim>
				</port>
			</output>
		</layer>
		<layer id="104" name="35443546_const" type="Const" version="opset1">
			<data element_type="f16" offset="185684" shape="1" size="2"/>
			<output>
				<port id="1" precision="FP16">
					<dim>1</dim>
				</port>
			</output>
		</layer>
		<layer id="105" name="bidirectional_3/backward_lstm_3_1/ReverseV2/ReverseSequence/" type="ReverseSequence" version="opset1">
			<data batch_axis="1" seq_axis="0"/>
			<input>
				<port id="0">
					<dim>128</dim>
					<dim>1</dim>
					<dim>512</dim>
				</port>
				<port id="1">
					<dim>1</dim>
				</port>
			</input>
			<output>
				<port id="2" precision="FP16">
					<dim>128</dim>
					<dim>1</dim>
					<dim>512</dim>
				</port>
			</output>
		</layer>
		<layer id="106" name="bidirectional_3/backward_lstm_3_1/while/Enter_2/Output_0/Data__const" type="Const" version="opset1">
			<data element_type="f16" offset="185172" shape="1,256" size="512"/>
			<output>
				<port id="1" precision="FP16">
					<dim>1</dim>
					<dim>256</dim>
				</port>
			</output>
		</layer>
		<layer id="107" name="bidirectional_3/backward_lstm_3_1/while/Enter_3/Output_0/Data__const" type="Const" version="opset1">
			<data element_type="f16" offset="185172" shape="1,256" size="512"/>
			<output>
				<port id="1" precision="FP16">
					<dim>1</dim>
					<dim>256</dim>
				</port>
			</output>
		</layer>
		<layer id="108" name="bidirectional_3/backward_lstm_3_1/while/LoopCond/TensorIteratorCondition_/TensorIterator" type="TensorIterator" version="opset1">
			<input>
				<port id="0">
					<dim>128</dim>
					<dim>1</dim>
					<dim>512</dim>
				</port>
				<port id="1">
					<dim>1</dim>
					<dim>256</dim>
				</port>
				<port id="2">
					<dim>1</dim>
					<dim>256</dim>
				</port>
			</input>
			<output>
				<port id="3" precision="FP16">
					<dim>128</dim>
					<dim>1</dim>
					<dim>256</dim>
				</port>
			</output>
			<port_map>
				<input external_port_id="2" internal_layer_id="16"/>
				<input external_port_id="1" internal_layer_id="7"/>
				<input axis="0" external_port_id="0" internal_layer_id="0"/>
				<output axis="0" external_port_id="3" internal_layer_id="29"/>
			</port_map>
			<back_edges>
				<edge from-layer="22" to-layer="16"/>
				<edge from-layer="26" to-layer="7"/>
			</back_edges>
			<body>
				<layers>
					<layer id="0" name="62" type="Parameter" version="opset1">
						<data element_type="f16" shape="1,1,512"/>
						<output>
							<port id="0" precision="FP16">
								<dim>1</dim>
								<dim>1</dim>
								<dim>512</dim>
							</port>
						</output>
					</layer>
					<layer id="1" name="55_const" type="Const" version="opset1">
						<data element_type="i64" offset="286274" shape="1" size="8"/>
						<output>
							<port id="1" precision="I64">
								<dim>1</dim>
							</port>
						</output>
					</layer>
					<layer id="2" name="bidirectional_3/backward_lstm_3_1/while/TensorArrayReadV3/Output_0/Data_/InputSqueeze" type="Squeeze" version="opset1">
						<input>
							<port id="0">
								<dim>1</dim>
								<dim>1</dim>
								<dim>512</dim>
							</port>
							<port id="1">
								<dim>1</dim>
							</port>
						</input>
						<output>
							<port id="2" precision="FP16">
								<dim>1</dim>
								<dim>512</dim>
							</port>
						</output>
					</layer>
					<layer id="3" name="bidirectional_3/backward_lstm_3_1/while/mul/Enter/Output_0/Data__const" type="Const" version="opset1">
						<data element_type="f16" offset="6584402" shape="1,512" size="1024"/>
						<output>
							<port id="1" precision="FP16">
								<dim>1</dim>
								<dim>512</dim>
							</port>
						</output>
					</layer>
					<layer id="4" name="bidirectional_3/backward_lstm_3_1/while/mul" type="Multiply" version="opset1">
						<input>
							<port id="0">
								<dim>1</dim>
								<dim>512</dim>
							</port>
							<port id="1">
								<dim>1</dim>
								<dim>512</dim>
							</port>
						</input>
						<output>
							<port id="2" precision="FP16">
								<dim>1</dim>
								<dim>512</dim>
							</port>
						</output>
					</layer>
					<layer id="5" name="bidirectional_3/backward_lstm_3_1/while/MatMul/1_port_transpose401_const" type="Const" version="opset1">
						<data element_type="f16" offset="14459986" shape="1024,512" size="1048576"/>
						<output>
							<port id="1" precision="FP16">
								<dim>1024</dim>
								<dim>512</dim>
							</port>
						</output>
					</layer>
					<layer id="6" name="bidirectional_3/backward_lstm_3_1/while/MatMul" type="MatMul" version="opset1">
						<data transpose_a="False" transpose_b="True"/>
						<input>
							<port id="0">
								<dim>1</dim>
								<dim>512</dim>
							</port>
							<port id="1">
								<dim>1024</dim>
								<dim>512</dim>
							</port>
						</input>
						<output>
							<port id="2" precision="FP16">
								<dim>1</dim>
								<dim>1024</dim>
							</port>
						</output>
					</layer>
					<layer id="7" name="64" type="Parameter" version="opset1">
						<data element_type="f16" shape="1,256"/>
						<output>
							<port id="0" precision="FP16">
								<dim>1</dim>
								<dim>256</dim>
							</port>
						</output>
					</layer>
					<layer id="8" name="bidirectional_3/backward_lstm_3_1/while/MatMul_1/1_port_transpose405_const" type="Const" version="opset1">
						<data element_type="f16" offset="15508562" shape="1024,256" size="524288"/>
						<output>
							<port id="1" precision="FP16">
								<dim>1024</dim>
								<dim>256</dim>
							</port>
						</output>
					</layer>
					<layer id="9" name="bidirectional_3/backward_lstm_3_1/while/MatMul_1" type="MatMul" version="opset1">
						<data transpose_a="False" transpose_b="True"/>
						<input>
							<port id="0">
								<dim>1</dim>
								<dim>256</dim>
							</port>
							<port id="1">
								<dim>1024</dim>
								<dim>256</dim>
							</port>
						</input>
						<output>
							<port id="2" precision="FP16">
								<dim>1</dim>
								<dim>1024</dim>
							</port>
						</output>
					</layer>
					<layer id="10" name="bidirectional_3/backward_lstm_3_1/while/add" type="Add" version="opset1">
						<input>
							<port id="0">
								<dim>1</dim>
								<dim>1024</dim>
							</port>
							<port id="1">
								<dim>1</dim>
								<dim>1024</dim>
							</port>
						</input>
						<output>
							<port id="2" precision="FP16">
								<dim>1</dim>
								<dim>1024</dim>
							</port>
						</output>
					</layer>
					<layer id="11" name="bidirectional_3/backward_lstm_3_1/while/BiasAdd/ReadVariableOp/Output_0/Data__const" type="Const" version="opset1">
						<data element_type="f16" offset="16032850" shape="1024" size="2048"/>
						<output>
							<port id="1" precision="FP16">
								<dim>1024</dim>
							</port>
						</output>
					</layer>
					<layer id="12" name="bidirectional_3/backward_lstm_3_1/while/BiasAdd/Add" type="Add" version="opset1">
						<input>
							<port id="0">
								<dim>1</dim>
								<dim>1024</dim>
							</port>
							<port id="1">
								<dim>1024</dim>
							</port>
						</input>
						<output>
							<port id="2" precision="FP16">
								<dim>1</dim>
								<dim>1024</dim>
							</port>
						</output>
					</layer>
					<layer id="13" name="bidirectional_3/backward_lstm_3_1/while/split/split_dim/Output_0/Data__const" type="Const" version="opset1">
						<data element_type="i64" offset="3436618" shape="" size="8"/>
						<output>
							<port id="1" precision="I64"/>
						</output>
					</layer>
					<layer id="14" name="bidirectional_3/backward_lstm_3_1/while/split" type="Split" version="opset1">
						<data num_splits="4"/>
						<input>
							<port id="0">
								<dim>1</dim>
								<dim>1024</dim>
							</port>
							<port id="1"/>
						</input>
						<output>
							<port id="2" precision="FP16">
								<dim>1</dim>
								<dim>256</dim>
							</port>
							<port id="3" precision="FP16">
								<dim>1</dim>
								<dim>256</dim>
							</port>
							<port id="4" precision="FP16">
								<dim>1</dim>
								<dim>256</dim>
							</port>
							<port id="5" precision="FP16">
								<dim>1</dim>
								<dim>256</dim>
							</port>
						</output>
					</layer>
					<layer id="15" name="bidirectional_3/backward_lstm_3_1/while/Sigmoid_1" type="Sigmoid" version="opset1">
						<input>
							<port id="0">
								<dim>1</dim>
								<dim>256</dim>
							</port>
						</input>
						<output>
							<port id="1" precision="FP16">
								<dim>1</dim>
								<dim>256</dim>
							</port>
						</output>
					</layer>
					<layer id="16" name="66" type="Parameter" version="opset1">
						<data element_type="f16" shape="1,256"/>
						<output>
							<port id="0" precision="FP16">
								<dim>1</dim>
								<dim>256</dim>
							</port>
						</output>
					</layer>
					<layer id="17" name="bidirectional_3/backward_lstm_3_1/while/mul_1" type="Multiply" version="opset1">
						<input>
							<port id="0">
								<dim>1</dim>
								<dim>256</dim>
							</port>
							<port id="1">
								<dim>1</dim>
								<dim>256</dim>
							</port>
						</input>
						<output>
							<port id="2" precision="FP16">
								<dim>1</dim>
								<dim>256</dim>
							</port>
						</output>
					</layer>
					<layer id="18" name="bidirectional_3/backward_lstm_3_1/while/Sigmoid" type="Sigmoid" version="opset1">
						<input>
							<port id="0">
								<dim>1</dim>
								<dim>256</dim>
							</port>
						</input>
						<output>
							<port id="1" precision="FP16">
								<dim>1</dim>
								<dim>256</dim>
							</port>
						</output>
					</layer>
					<layer id="19" name="bidirectional_3/backward_lstm_3_1/while/Tanh" type="Tanh" version="opset1">
						<input>
							<port id="0">
								<dim>1</dim>
								<dim>256</dim>
							</port>
						</input>
						<output>
							<port id="1" precision="FP16">
								<dim>1</dim>
								<dim>256</dim>
							</port>
						</output>
					</layer>
					<layer id="20" name="bidirectional_3/backward_lstm_3_1/while/mul_2" type="Multiply" version="opset1">
						<input>
							<port id="0">
								<dim>1</dim>
								<dim>256</dim>
							</port>
							<port id="1">
								<dim>1</dim>
								<dim>256</dim>
							</port>
						</input>
						<output>
							<port id="2" precision="FP16">
								<dim>1</dim>
								<dim>256</dim>
							</port>
						</output>
					</layer>
					<layer id="21" name="bidirectional_3/backward_lstm_3_1/while/add_1" type="Add" version="opset1">
						<input>
							<port id="0">
								<dim>1</dim>
								<dim>256</dim>
							</port>
							<port id="1">
								<dim>1</dim>
								<dim>256</dim>
							</port>
						</input>
						<output>
							<port id="2" precision="FP16">
								<dim>1</dim>
								<dim>256</dim>
							</port>
						</output>
					</layer>
					<layer id="22" name="bidirectional_3/backward_lstm_3_1/while/add_1/Output_0/Data_/sink_port_0" type="Result" version="opset1">
						<input>
							<port id="0">
								<dim>1</dim>
								<dim>256</dim>
							</port>
						</input>
					</layer>
					<layer id="23" name="bidirectional_3/backward_lstm_3_1/while/Sigmoid_2" type="Sigmoid" version="opset1">
						<input>
							<port id="0">
								<dim>1</dim>
								<dim>256</dim>
							</port>
						</input>
						<output>
							<port id="1" precision="FP16">
								<dim>1</dim>
								<dim>256</dim>
							</port>
						</output>
					</layer>
					<layer id="24" name="bidirectional_3/backward_lstm_3_1/while/Tanh_1" type="Tanh" version="opset1">
						<input>
							<port id="0">
								<dim>1</dim>
								<dim>256</dim>
							</port>
						</input>
						<output>
							<port id="1" precision="FP16">
								<dim>1</dim>
								<dim>256</dim>
							</port>
						</output>
					</layer>
					<layer id="25" name="bidirectional_3/backward_lstm_3_1/while/mul_3" type="Multiply" version="opset1">
						<input>
							<port id="0">
								<dim>1</dim>
								<dim>256</dim>
							</port>
							<port id="1">
								<dim>1</dim>
								<dim>256</dim>
							</port>
						</input>
						<output>
							<port id="2" precision="FP16">
								<dim>1</dim>
								<dim>256</dim>
							</port>
						</output>
					</layer>
					<layer id="26" name="bidirectional_3/backward_lstm_3_1/while/mul_3/Output_0/Data_/sink_port_0" type="Result" version="opset1">
						<input>
							<port id="0">
								<dim>1</dim>
								<dim>256</dim>
							</port>
						</input>
					</layer>
					<layer id="27" name="58_const" type="Const" version="opset1">
						<data element_type="i64" offset="286274" shape="1" size="8"/>
						<output>
							<port id="1" precision="I64">
								<dim>1</dim>
							</port>
						</output>
					</layer>
					<layer id="28" name="bidirectional_3/backward_lstm_3_1/while/mul_3/Output_0/Data_/OutputUnsqueeze" type="Unsqueeze" version="opset1">
						<input>
							<port id="0">
								<dim>1</dim>
								<dim>256</dim>
							</port>
							<port id="1">
								<dim>1</dim>
							</port>
						</input>
						<output>
							<port id="2" precision="FP16">
								<dim>1</dim>
								<dim>1</dim>
								<dim>256</dim>
							</port>
						</output>
					</layer>
					<layer id="29" name="60/sink_port_0" type="Result" version="opset1">
						<input>
							<port id="0">
								<dim>1</dim>
								<dim>1</dim>
								<dim>256</dim>
							</port>
						</input>
					</layer>
				</layers>
				<edges>
					<edge from-layer="0" from-port="0" to-layer="2" to-port="0"/>
					<edge from-layer="1" from-port="1" to-layer="2" to-port="1"/>
					<edge from-layer="2" from-port="2" to-layer="4" to-port="0"/>
					<edge from-layer="3" from-port="1" to-layer="4" to-port="1"/>
					<edge from-layer="4" from-port="2" to-layer="6" to-port="0"/>
					<edge from-layer="5" from-port="1" to-layer="6" to-port="1"/>
					<edge from-layer="7" from-port="0" to-layer="9" to-port="0"/>
					<edge from-layer="8" from-port="1" to-layer="9" to-port="1"/>
					<edge from-layer="6" from-port="2" to-layer="10" to-port="0"/>
					<edge from-layer="9" from-port="2" to-layer="10" to-port="1"/>
					<edge from-layer="10" from-port="2" to-layer="12" to-port="0"/>
					<edge from-layer="11" from-port="1" to-layer="12" to-port="1"/>
					<edge from-layer="12" from-port="2" to-layer="14" to-port="0"/>
					<edge from-layer="13" from-port="1" to-layer="14" to-port="1"/>
					<edge from-layer="14" from-port="3" to-layer="15" to-port="0"/>
…
					<dim>1</dim>
					<dim>128</dim>
					<dim>256</dim>
				</port>
				<port id="1">
					<dim>1</dim>
				</port>
			</input>
			<output>
				<port id="2" precision="FP16">
					<dim>1</dim>
					<dim>128</dim>
					<dim>256</dim>
				</port>
			</output>
		</layer>
		<layer id="113" name="bidirectional_3/concat" type="Concat" version="opset1">
			<data axis="2"/>
			<input>
				<port id="0">
					<dim>1</dim>
					<dim>128</dim>
					<dim>256</dim>
				</port>
				<port id="1">
					<dim>1</dim>
					<dim>128</dim>
					<dim>256</dim>
				</port>
			</input>
			<output>
				<port id="2" precision="FP16">
					<dim>1</dim>
					<dim>128</dim>
					<dim>512</dim>
				</port>
			</output>
		</layer>
		<layer id="114" name="bidirectional_4/forward_lstm_4_1/transpose/Cast_19470_const" type="Const" version="opset1">
			<data element_type="i64" offset="185148" shape="3" size="24"/>
			<output>
				<port id="1" precision="I64">
					<dim>3</dim>
				</port>
			</output>
		</layer>
		<layer id="115" name="bidirectional_4/forward_lstm_4_1/transpose" type="Transpose" version="opset1">
			<input>
				<port id="0">
					<dim>1</dim>
					<dim>128</dim>
					<dim>512</dim>
				</port>
				<port id="1">
					<dim>3</dim>
				</port>
			</input>
			<output>
				<port id="2" precision="FP16">
					<dim>128</dim>
					<dim>1</dim>
					<dim>512</dim>
				</port>
			</output>
		</layer>
		<layer id="116" name="bidirectional_4/forward_lstm_4_1/while/Enter_2/Output_0/Data__const" type="Const" version="opset1">
			<data element_type="f16" offset="185172" shape="1,256" size="512"/>
			<output>
				<port id="1" precision="FP16">
					<dim>1</dim>
					<dim>256</dim>
				</port>
			</output>
		</layer>
		<layer id="117" name="bidirectional_4/forward_lstm_4_1/while/Enter_3/Output_0/Data__const" type="Const" version="opset1">
			<data element_type="f16" offset="185172" shape="1,256" size="512"/>
			<output>
				<port id="1" precision="FP16">
					<dim>1</dim>
					<dim>256</dim>
				</port>
			</output>
		</layer>
		<layer id="118" name="bidirectional_4/forward_lstm_4_1/while/LoopCond/TensorIteratorCondition_/TensorIterator" type="TensorIterator" version="opset1">
			<input>
				<port id="0">
					<dim>128</dim>
					<dim>1</dim>
					<dim>512</dim>
				</port>
				<port id="1">
					<dim>1</dim>
					<dim>256</dim>
				</port>
				<port id="2">
					<dim>1</dim>
					<dim>256</dim>
				</port>
			</input>
			<output>
				<port id="3" precision="FP16">
					<dim>128</dim>
					<dim>1</dim>
					<dim>256</dim>
				</port>
			</output>
			<port_map>
				<input external_port_id="2" internal_layer_id="16"/>
				<input external_port_id="1" internal_layer_id="7"/>
				<input axis="0" external_port_id="0" internal_layer_id="0"/>
				<output axis="0" external_port_id="3" internal_layer_id="29"/>
			</port_map>
			<back_edges>
				<edge from-layer="22" to-layer="16"/>
				<edge from-layer="26" to-layer="7"/>
			</back_edges>
			<body>
				<layers>
					<layer id="0" name="62" type="Parameter" version="opset1">
						<data element_type="f16" shape="1,1,512"/>
						<output>
							<port id="0" precision="FP16">
								<dim>1</dim>
								<dim>1</dim>
								<dim>512</dim>
							</port>
						</output>
					</layer>
					<layer id="1" name="55_const" type="Const" version="opset1">
						<data element_type="i64" offset="286274" shape="1" size="8"/>
						<output>
							<port id="1" precision="I64">
								<dim>1</dim>
							</port>
						</output>
					</layer>
					<layer id="2" name="bidirectional_4/forward_lstm_4_1/while/TensorArrayReadV3/Output_0/Data_/InputSqueeze" type="Squeeze" version="opset1">
						<input>
							<port id="0">
								<dim>1</dim>
								<dim>1</dim>
								<dim>512</dim>
							</port>
							<port id="1">
								<dim>1</dim>
							</port>
						</input>
						<output>
							<port id="2" precision="FP16">
								<dim>1</dim>
								<dim>512</dim>
							</port>
						</output>
					</layer>
					<layer id="3" name="bidirectional_4/forward_lstm_4_1/while/mul/Enter/Output_0/Data__const" type="Const" version="opset1">
						<data element_type="f16" offset="6584402" shape="1,512" size="1024"/>
						<output>
							<port id="1" precision="FP16">
								<dim>1</dim>
								<dim>512</dim>
							</port>
						</output>
					</layer>
					<layer id="4" name="bidirectional_4/forward_lstm_4_1/while/mul" type="Multiply" version="opset1">
						<input>
							<port id="0">
								<dim>1</dim>
								<dim>512</dim>
							</port>
							<port id="1">
								<dim>1</dim>
								<dim>512</dim>
							</port>
						</input>
						<output>
							<port id="2" precision="FP16">
								<dim>1</dim>
								<dim>512</dim>
							</port>
						</output>
					</layer>
					<layer id="5" name="bidirectional_4/forward_lstm_4_1/while/MatMul/1_port_transpose401_const" type="Const" version="opset1">
						<data element_type="f16" offset="16034898" shape="1024,512" size="1048576"/>
						<output>
							<port id="1" precision="FP16">
								<dim>1024</dim>
								<dim>512</dim>
							</port>
						</output>
					</layer>
					<layer id="6" name="bidirectional_4/forward_lstm_4_1/while/MatMul" type="MatMul" version="opset1">
						<data transpose_a="False" transpose_b="True"/>
						<input>
							<port id="0">
								<dim>1</dim>
								<dim>512</dim>
							</port>
							<port id="1">
								<dim>1024</dim>
								<dim>512</dim>
							</port>
						</input>
						<output>
							<port id="2" precision="FP16">
								<dim>1</dim>
								<dim>1024</dim>
							</port>
						</output>
					</layer>
					<layer id="7" name="64" type="Parameter" version="opset1">
						<data element_type="f16" shape="1,256"/>
						<output>
							<port id="0" precision="FP16">
								<dim>1</dim>
								<dim>256</dim>
							</port>
						</output>
					</layer>
					<layer id="8" name="bidirectional_4/forward_lstm_4_1/while/MatMul_1/1_port_transpose405_const" type="Const" version="opset1">
						<data element_type="f16" offset="17083474" shape="1024,256" size="524288"/>
						<output>
							<port id="1" precision="FP16">
								<dim>1024</dim>
								<dim>256</dim>
							</port>
						</output>
					</layer>
					<layer id="9" name="bidirectional_4/forward_lstm_4_1/while/MatMul_1" type="MatMul" version="opset1">
						<data transpose_a="False" transpose_b="True"/>
						<input>
							<port id="0">
								<dim>1</dim>
								<dim>256</dim>
							</port>
							<port id="1">
								<dim>1024</dim>
								<dim>256</dim>
							</port>
						</input>
						<output>
							<port id="2" precision="FP16">
								<dim>1</dim>
								<dim>1024</dim>
							</port>
						</output>
					</layer>
					<layer id="10" name="bidirectional_4/forward_lstm_4_1/while/add" type="Add" version="opset1">
						<input>
							<port id="0">
								<dim>1</dim>
								<dim>1024</dim>
							</port>
							<port id="1">
								<dim>1</dim>
								<dim>1024</dim>
							</port>
						</input>
						<output>
							<port id="2" precision="FP16">
								<dim>1</dim>
								<dim>1024</dim>
							</port>
						</output>
					</layer>
					<layer id="11" name="bidirectional_4/forward_lstm_4_1/while/BiasAdd/ReadVariableOp/Output_0/Data__const" type="Const" version="opset1">
						<data element_type="f16" offset="17607762" shape="1024" size="2048"/>
						<output>
							<port id="1" precision="FP16">
								<dim>1024</dim>
							</port>
						</output>
					</layer>
					<layer id="12" name="bidirectional_4/forward_lstm_4_1/while/BiasAdd/Add" type="Add" version="opset1">
						<input>
							<port id="0">
								<dim>1</dim>
								<dim>1024</dim>
							</port>
							<port id="1">
								<dim>1024</dim>
							</port>
						</input>
						<output>
							<port id="2" precision="FP16">
								<dim>1</dim>
								<dim>1024</dim>
							</port>
						</output>
					</layer>
					<layer id="13" name="bidirectional_4/forward_lstm_4_1/while/split/split_dim/Output_0/Data__const" type="Const" version="opset1">
						<data element_type="i64" offset="3436618" shape="" size="8"/>
						<output>
							<port id="1" precision="I64"/>
						</output>
					</layer>
					<layer id="14" name="bidirectional_4/forward_lstm_4_1/while/split" type="Split" version="opset1">
						<data num_splits="4"/>
						<input>
							<port id="0">
								<dim>1</dim>
								<dim>1024</dim>
							</port>
							<port id="1"/>
						</input>
						<output>
							<port id="2" precision="FP16">
								<dim>1</dim>
								<dim>256</dim>
							</port>
							<port id="3" precision="FP16">
								<dim>1</dim>
								<dim>256</dim>
							</port>
							<port id="4" precision="FP16">
								<dim>1</dim>
								<dim>256</dim>
							</port>
							<port id="5" precision="FP16">
								<dim>1</dim>
								<dim>256</dim>
							</port>
						</output>
					</layer>
					<layer id="15" name="bidirectional_4/forward_lstm_4_1/while/Sigmoid_1" type="Sigmoid" version="opset1">
						<input>
							<port id="0">
								<dim>1</dim>
								<dim>256</dim>
							</port>
						</input>
						<output>
							<port id="1" precision="FP16">
								<dim>1</dim>
								<dim>256</dim>
							</port>
						</output>
					</layer>
					<layer id="16" name="66" type="Parameter" version="opset1">
						<data element_type="f16" shape="1,256"/>
						<output>
							<port id="0" precision="FP16">
								<dim>1</dim>
								<dim>256</dim>
							</port>
						</output>
					</layer>
					<layer id="17" name="bidirectional_4/forward_lstm_4_1/while/mul_1" type="Multiply" version="opset1">
						<input>
							<port id="0">
								<dim>1</dim>
								<dim>256</dim>
							</port>
							<port id="1">
								<dim>1</dim>
								<dim>256</dim>
							</port>
						</input>
						<output>
							<port id="2" precision="FP16">
								<dim>1</dim>
								<dim>256</dim>
							</port>
						</output>
					</layer>
					<layer id="18" name="bidirectional_4/forward_lstm_4_1/while/Sigmoid" type="Sigmoid" version="opset1">
						<input>
							<port id="0">
								<dim>1</dim>
								<dim>256</dim>
							</port>
						</input>
						<output>
							<port id="1" precision="FP16">
								<dim>1</dim>
								<dim>256</dim>
							</port>
						</output>
					</layer>
					<layer id="19" name="bidirectional_4/forward_lstm_4_1/while/Tanh" type="Tanh" version="opset1">
						<input>
							<port id="0">
								<dim>1</dim>
								<dim>256</dim>
							</port>
						</input>
						<output>
							<port id="1" precision="FP16">
								<dim>1</dim>
								<dim>256</dim>
							</port>
						</output>
					</layer>
					<layer id="20" name="bidirectional_4/forward_lstm_4_1/while/mul_2" type="Multiply" version="opset1">
						<input>
							<port id="0">
								<dim>1</dim>
								<dim>256</dim>
							</port>
							<port id="1">
								<dim>1</dim>
								<dim>256</dim>
							</port>
						</input>
						<output>
							<port id="2" precision="FP16">
								<dim>1</dim>
								<dim>256</dim>
							</port>
						</output>
					</layer>
					<layer id="21" name="bidirectional_4/forward_lstm_4_1/while/add_1" type="Add" version="opset1">
						<input>
							<port id="0">
								<dim>1</dim>
								<dim>256</dim>
							</port>
							<port id="1">
								<dim>1</dim>
								<dim>256</dim>
							</port>
						</input>
						<output>
							<port id="2" precision="FP16">
								<dim>1</dim>
								<dim>256</dim>
							</port>
						</output>
					</layer>
					<layer id="22" name="bidirectional_4/forward_lstm_4_1/while/add_1/Output_0/Data_/sink_port_0" type="Result" version="opset1">
						<input>
							<port id="0">
								<dim>1</dim>
								<dim>256</dim>
							</port>
						</input>
					</layer>
					<layer id="23" name="bidirectional_4/forward_lstm_4_1/while/Sigmoid_2" type="Sigmoid" version="opset1">
						<input>
							<port id="0">
								<dim>1</dim>
								<dim>256</dim>
							</port>
						</input>
						<output>
							<port id="1" precision="FP16">
								<dim>1</dim>
								<dim>256</dim>
							</port>
						</output>
					</layer>
					<layer id="24" name="bidirectional_4/forward_lstm_4_1/while/Tanh_1" type="Tanh" version="opset1">
						<input>
							<port id="0">
								<dim>1</dim>
								<dim>256</dim>
							</port>
						</input>
						<output>
							<port id="1" precision="FP16">
								<dim>1</dim>
								<dim>256</dim>
							</port>
						</output>
					</layer>
					<layer id="25" name="bidirectional_4/forward_lstm_4_1/while/mul_3" type="Multiply" version="opset1">
						<input>
							<port id="0">
								<dim>1</dim>
								<dim>256</dim>
							</port>
							<port id="1">
								<dim>1</dim>
								<dim>256</dim>
							</port>
						</input>
						<output>
							<port id="2" precision="FP16">
								<dim>1</dim>
								<dim>256</dim>
							</port>
						</output>
					</layer>
					<layer id="26" name="bidirectional_4/forward_lstm_4_1/while/mul_3/Output_0/Data_/sink_port_0" type="Result" version="opset1">
						<input>
							<port id="0">
								<dim>1</dim>
								<dim>256</dim>
							</port>
						</input>
					</layer>
					<layer id="27" name="58_const" type="Const" version="opset1">
						<data element_type="i64" offset="286274" shape="1" size="8"/>
						<output>
							<port id="1" precision="I64">
								<dim>1</dim>
							</port>
						</output>
					</layer>
					<layer id="28" name="bidirectional_4/forward_lstm_4_1/while/mul_3/Output_0/Data_/OutputUnsqueeze" type="Unsqueeze" version="opset1">
						<input>
							<port id="0">
								<dim>1</dim>
								<dim>256</dim>
							</port>
							<port id="1">
								<dim>1</dim>
							</port>
						</input>
						<output>
							<port id="2" precision="FP16">
								<dim>1</dim>
								<dim>1</dim>
								<dim>256</dim>
							</port>
						</output>
					</layer>
					<layer id="29" name="60/sink_port_0" type="Result" version="opset1">
						<input>
							<port id="0">
								<dim>1</dim>
								<dim>1</dim>
								<dim>256</dim>
							</port>
						</input>
					</layer>
				</layers>
				<edges>
					<edge from-layer="0" from-port="0" to-layer="2" to-port="0"/>
					<edge from-layer="1" from-port="1" to-layer="2" to-port="1"/>
					<edge from-layer="2" from-port="2" to-layer="4" to-port="0"/>
					<edge from-layer="3" from-port="1" to-layer="4" to-port="1"/>
					<edge from-layer="4" from-port="2" to-layer="6" to-port="0"/>
					<edge from-layer="5" from-port="1" to-layer="6" to-port="1"/>
					<edge from-layer="7" from-port="0" to-layer="9" to-port="0"/>
					<edge from-layer="8" from-port="1" to-layer="9" to-port="1"/>
					<edge from-layer="6" from-port="2" to-layer="10" to-port="0"/>
					<edge from-layer="9" from-port="2" to-layer="10" to-port="1"/>
					<edge from-layer="10" from-port="2" to-layer="12" to-port="0"/>
					<edge from-layer="11" from-port="1" to-layer="12" to-port="1"/>
					<edge from-layer="12" from-port="2" to-layer="14" to-port="0"/>
					<edge from-layer="13" from-port="1" to-layer="14" to-port="1"/>
					<edge from-layer="14" from-port="3" to-layer="15" to-port="0"/>
					<edge from-layer="15" from-port="1" to-layer="17" to-port="0"/>
					<edge from-layer="16" from-port="0" to-layer="17" to-port="1"/>
					<edge from-layer="14" from-port="2" to-layer="18" to-port="0"/>
					<edge from-layer="14" from-port="4" to-layer="19" to-port="0"/>
					<edge from-layer="18" from-port="1" to-layer="20" to-port="0"/>
					<edge from-layer="19" from-port="1" to-layer="20" to-port="1"/>
					<edge from-layer="17" from-port="2" to-layer="21" to-port="0"/>
					<edge from-layer="20" from-port="2" to-layer="21" to-port="1"/>
					<edge from-layer="21" from-port="2" to-layer="22" to-port="0"/>
					<edge from-layer="14" from-port="5" to-layer="23" to-port="0"/>
					<edge from-layer="21" from-port="2" to-layer="24" to-port="0"/>
					<edge from-layer="23" from-port="1" to-layer="25" to-port="0"/>
					<edge from-layer="24" from-port="1" to-layer="25" to-port="1"/>
					<edge from-layer="25" from-port="2" to-layer="26" to-port="0"/>
					<edge from-layer="25" from-port="2" to-layer="28" to-port="0"/>
					<edge from-layer="27" from-port="1" to-layer="28" to-port="1"/>
					<edge from-layer="28" from-port="2" to-layer="29" to-port="0"/>
				</edges>
			</body>
		</layer>
		<layer id="119" name="bidirectional_4/forward_lstm_4_1/transpose_1/Cast_19468_const" type="Const" version="opset1">
			<data element_type="i64" offset="185148" shape="3" size="24"/>
			<output>
				<port id="1" precision="I64">
					<dim>3</dim>
				</port>
			</output>
		</layer>
		<layer id="120" name="bidirectional_4/forward_lstm_4_1/transpose_1" type="Transpose" version="opset1">
			<input>
				<port id="0">
					<dim>128</dim>
					<dim>1</dim>
					<dim>256</dim>
				</port>
				<port id="1">
					<dim>3</dim>
				</port>
			</input>
			<output>
				<port id="2" precision="FP16">
					<dim>1</dim>
					<dim>128</dim>
					<dim>256</dim>
				</port>
			</output>
		</layer>
		<layer id="121" name="bidirectional_4/backward_lstm_4_1/transpose/Cast_19460_const" type="Const" version="opset1">
			<data element_type="i64" offset="185148" shape="3" size="24"/>
			<output>
				<port id="1" precision="I64">
					<dim>3</dim>
				</port>
			</output>
		</layer>
		<layer id="122" name="bidirectional_4/backward_lstm_4_1/transpose" type="Transpose" version="opset1">
			<input>
				<port id="0">
					<dim>1</dim>
					<dim>128</dim>
					<dim>512</dim>
				</port>
				<port id="1">
					<dim>3</dim>
				</port>
			</input>
			<output>
				<port id="2" precision="FP16">
					<dim>128</dim>
					<dim>1</dim>
					<dim>512</dim>
				</port>
			</output>
		</layer>
		<layer id="123" name="35363538_const" type="Const" version="opset1">
			<data element_type="f16" offset="185684" shape="1" size="2"/>
			<output>
				<port id="1" precision="FP16">
					<dim>1</dim>
				</port>
			</output>
		</layer>
		<layer id="124" name="bidirectional_4/backward_lstm_4_1/ReverseV2/ReverseSequence/" type="ReverseSequence" version="opset1">
			<data batch_axis="1" seq_axis="0"/>
			<input>
				<port id="0">
					<dim>128</dim>
					<dim>1</dim>
					<dim>512</dim>
				</port>
				<port id="1">
					<dim>1</dim>
				</port>
			</input>
			<output>
				<port id="2" precision="FP16">
					<dim>128</dim>
					<dim>1</dim>
					<dim>512</dim>
				</port>
			</output>
		</layer>
		<layer id="125" name="bidirectional_4/backward_lstm_4_1/while/Enter_2/Output_0/Data__const" type="Const" version="opset1">
			<data element_type="f16" offset="185172" shape="1,256" size="512"/>
			<output>
				<port id="1" precision="FP16">
					<dim>1</dim>
					<dim>256</dim>
				</port>
			</output>
		</layer>
		<layer id="126" name="bidirectional_4/backward_lstm_4_1/while/Enter_3/Output_0/Data__const" type="Const" version="opset1">
			<data element_type="f16" offset="185172" shape="1,256" size="512"/>
			<output>
				<port id="1" precision="FP16">
					<dim>1</dim>
					<dim>256</dim>
				</port>
			</output>
		</layer>
		<layer id="127" name="bidirectional_4/backward_lstm_4_1/while/LoopCond/TensorIteratorCondition_/TensorIterator" type="TensorIterator" version="opset1">
			<input>
				<port id="0">
					<dim>128</dim>
					<dim>1</dim>
					<dim>512</dim>
				</port>
				<port id="1">
					<dim>1</dim>
					<dim>256</dim>
				</port>
				<port id="2">
					<dim>1</dim>
					<dim>256</dim>
				</port>
			</input>
			<output>
				<port id="3" precision="FP16">
					<dim>128</dim>
					<dim>1</dim>
					<dim>256</dim>
				</port>
			</output>
			<port_map>
				<input external_port_id="2" internal_layer_id="16"/>
				<input external_port_id="1" internal_layer_id="7"/>
				<input axis="0" external_port_id="0" internal_layer_id="0"/>
				<output axis="0" external_port_id="3" internal_layer_id="29"/>
			</port_map>
			<back_edges>
				<edge from-layer="22" to-layer="16"/>
				<edge from-layer="26" to-layer="7"/>
			</back_edges>
			<body>
				<layers>
					<layer id="0" name="62" type="Parameter" version="opset1">
						<data element_type="f16" shape="1,1,512"/>
						<output>
							<port id="0" precision="FP16">
								<dim>1</dim>
								<dim>1</dim>
								<dim>512</dim>
							</port>
						</output>
					</layer>
					<layer id="1" name="55_const" type="Const" version="opset1">
						<data element_type="i64" offset="286274" shape="1" size="8"/>
						<output>
							<port id="1" precision="I64">
								<dim>1</dim>
							</port>
						</output>
					</layer>
					<layer id="2" name="bidirectional_4/backward_lstm_4_1/while/TensorArrayReadV3/Output_0/Data_/InputSqueeze" type="Squeeze" version="opset1">
						<input>
							<port id="0">
								<dim>1</dim>
								<dim>1</dim>
								<dim>512</dim>
							</port>
							<port id="1">
								<dim>1</dim>
							</port>
						</input>
						<output>
							<port id="2" precision="FP16">
								<dim>1</dim>
								<dim>512</dim>
							</port>
						</output>
					</layer>
					<layer id="3" name="bidirectional_4/backward_lstm_4_1/while/mul/Enter/Output_0/Data__const" type="Const" version="opset1">
						<data element_type="f16" offset="6584402" shape="1,512" size="1024"/>
						<output>
							<port id="1" precision="FP16">
								<dim>1</dim>
								<dim>512</dim>
							</port>
						</output>
					</layer>
					<layer id="4" name="bidirectional_4/backward_lstm_4_1/while/mul" type="Multiply" version="opset1">
						<input>
							<port id="0">
								<dim>1</dim>
								<dim>512</dim>
							</port>
							<port id="1">
								<dim>1</dim>
								<dim>512</dim>
							</port>
						</input>
						<output>
							<port id="2" precision="FP16">
								<dim>1</dim>
								<dim>512</dim>
							</port>
						</output>
					</layer>
					<layer id="5" name="bidirectional_4/backward_lstm_4_1/while/MatMul/1_port_transpose401_const" type="Const" version="opset1">
						<data element_type="f16" offset="17609810" shape="1024,512" size="1048576"/>
						<output>
							<port id="1" precision="FP16">
								<dim>1024</dim>
								<dim>512</dim>
							</port>
						</output>
					</layer>
					<layer id="6" name="bidirectional_4/backward_lstm_4_1/while/MatMul" type="MatMul" version="opset1">
						<data transpose_a="False" transpose_b="True"/>
						<input>
							<port id="0">
								<dim>1</dim>
								<dim>512</dim>
							</port>
							<port id="1">
								<dim>1024</dim>
								<dim>512</dim>
							</port>
						</input>
						<output>
							<port id="2" precision="FP16">
								<dim>1</dim>
								<dim>1024</dim>
							</port>
						</output>
					</layer>
					<layer id="7" name="64" type="Parameter" version="opset1">
						<data element_type="f16" shape="1,256"/>
						<output>
							<port id="0" precision="FP16">
								<dim>1</dim>
								<dim>256</dim>
							</port>
						</output>
					</layer>
					<layer id="8" name="bidirectional_4/backward_lstm_4_1/while/MatMul_1/1_port_transpose405_const" type="Const" version="opset1">
						<data element_type="f16" offset="18658386" shape="1024,256" size="524288"/>
						<output>
							<port id="1" precision="FP16">
								<dim>1024</dim>
								<dim>256</dim>
							</port>
						</output>
					</layer>
					<layer id="9" name="bidirectional_4/backward_lstm_4_1/while/MatMul_1" type="MatMul" version="opset1">
						<data transpose_a="False" transpose_b="True"/>
						<input>
							<port id="0">
								<dim>1</dim>
								<dim>256</dim>
							</port>
							<port id="1">
								<dim>1024</dim>
								<dim>256</dim>
							</port>
						</input>
						<output>
							<port id="2" precision="FP16">
								<dim>1</dim>
								<dim>1024</dim>
							</port>
						</output>
					</layer>
					<layer id="10" name="bidirectional_4/backward_lstm_4_1/while/add" type="Add" version="opset1">
						<input>
							<port id="0">
								<dim>1</dim>
								<dim>1024</dim>
							</port>
							<port id="1">
								<dim>1</dim>
								<dim>1024</dim>
							</port>
						</input>
						<output>
							<port id="2" precision="FP16">
								<dim>1</dim>
								<dim>1024</dim>
							</port>
						</output>
					</layer>
					<layer id="11" name="bidirectional_4/backward_lstm_4_1/while/BiasAdd/ReadVariableOp/Output_0/Data__const" type="Const" version="opset1">
						<data element_type="f16" offset="19182674" shape="1024" size="2048"/>
						<output>
							<port id="1" precision="FP16">
								<dim>1024</dim>
							</port>
						</output>
					</layer>
					<layer id="12" name="bidirectional_4/backward_lstm_4_1/while/BiasAdd/Add" type="Add" version="opset1">
						<input>
							<port id="0">
								<dim>1</dim>
								<dim>1024</dim>
							</port>
							<port id="1">
								<dim>1024</dim>
							</port>
						</input>
						<output>
							<port id="2" precision="FP16">
								<dim>1</dim>
								<dim>1024</dim>
							</port>
						</output>
					</layer>
					<layer id="13" name="bidirectional_4/backward_lstm_4_1/while/split/split_dim/Output_0/Data__const" type="Const" version="opset1">
						<data element_type="i64" offset="3436618" shape="" size="8"/>
						<output>
							<port id="1" precision="I64"/>
						</output>
					</layer>
					<layer id="14" name="bidirectional_4/backward_lstm_4_1/while/split" type="Split" version="opset1">
						<data num_splits="4"/>
						<input>
							<port id="0">
								<dim>1</dim>
								<dim>1024</dim>
							</port>
							<port id="1"/>
						</input>
						<output>
							<port id="2" precision="FP16">
								<dim>1</dim>
								<dim>256</dim>
							</port>
							<port id="3" precision="FP16">
								<dim>1</dim>
								<dim>256</dim>
							</port>
							<port id="4" precision="FP16">
								<dim>1</dim>
								<dim>256</dim>
							</port>
							<port id="5" precision="FP16">
								<dim>1</dim>
								<dim>256</dim>
							</port>
						</output>
					</layer>
					<layer id="15" name="bidirectional_4/backward_lstm_4_1/while/Sigmoid_1" type="Sigmoid" version="opset1">
						<input>
							<port id="0">
								<dim>1</dim>
								<dim>256</dim>
							</port>
						</input>
						<output>
							<port id="1" precision="FP16">
								<dim>1</dim>
								<dim>256</dim>
							</port>
						</output>
					</layer>
					<layer id="16" name="66" type="Parameter" version="opset1">
						<data element_type="f16" shape="1,256"/>
						<output>
							<port id="0" precision="FP16">
								<dim>1</dim>
								<dim>256</dim>
							</port>
						</output>
					</layer>
					<layer id="17" name="bidirectional_4/backward_lstm_4_1/while/mul_1" type="Multiply" version="opset1">
						<input>
							<port id="0">
								<dim>1</dim>
								<dim>256</dim>
							</port>
							<port id="1">
								<dim>1</dim>
								<dim>256</dim>
							</port>
						</input>
						<output>
							<port id="2" precision="FP16">
								<dim>1</dim>
								<dim>256</dim>
							</port>
						</output>
					</layer>
					<layer id="18" name="bidirectional_4/backward_lstm_4_1/while/Sigmoid" type="Sigmoid" version="opset1">
						<input>
							<port id="0">
								<dim>1</dim>
								<dim>256</dim>
							</port>
						</input>
						<output>
							<port id="1" precision="FP16">
								<dim>1</dim>
								<dim>256</dim>
							</port>
						</output>
					</layer>
					<layer id="19" name="bidirectional_4/backward_lstm_4_1/while/Tanh" type="Tanh" version="opset1">
						<input>
							<port id="0">
								<dim>1</dim>
								<dim>256</dim>
							</port>
						</input>
						<output>
							<port id="1" precision="FP16">
								<dim>1</dim>
								<dim>256</dim>
							</port>
						</output>
					</layer>
					<layer id="20" name="bidirectional_4/backward_lstm_4_1/while/mul_2" type="Multiply" version="opset1">
						<input>
							<port id="0">
								<dim>1</dim>
								<dim>256</dim>
							</port>
							<port id="1">
								<dim>1</dim>
								<dim>256</dim>
							</port>
						</input>
						<output>
							<port id="2" precision="FP16">
								<dim>1</dim>
								<dim>256</dim>
							</port>
						</output>
					</layer>
					<layer id="21" name="bidirectional_4/backward_lstm_4_1/while/add_1" type="Add" version="opset1">
						<input>
							<port id="0">
								<dim>1</dim>
								<dim>256</dim>
							</port>
							<port id="1">
								<dim>1</dim>
								<dim>256</dim>
							</port>
						</input>
						<output>
							<port id="2" precision="FP16">
								<dim>1</dim>
								<dim>256</dim>
							</port>
						</output>
					</layer>
					<layer id="22" name="bidirectional_4/backward_lstm_4_1/while/add_1/Output_0/Data_/sink_port_0" type="Result" version="opset1">
						<input>
							<port id="0">
								<dim>1</dim>
								<dim>256</dim>
							</port>
						</input>
					</layer>
					<layer id="23" name="bidirectional_4/backward_lstm_4_1/while/Sigmoid_2" type="Sigmoid" version="opset1">
						<input>
							<port id="0">
								<dim>1</dim>
								<dim>256</dim>
							</port>
						</input>
						<output>
							<port id="1" precision="FP16">
								<dim>1</dim>
								<dim>256</dim>
							</port>
						</output>
					</layer>
					<layer id="24" name="bidirectional_4/backward_lstm_4_1/while/Tanh_1" type="Tanh" version="opset1">
						<input>
							<port id="0">
								<dim>1</dim>
								<dim>256</dim>
							</port>
						</input>
						<output>
							<port id="1" precision="FP16">
								<dim>1</dim>
								<dim>256</dim>
							</port>
						</output>
					</layer>
					<layer id="25" name="bidirectional_4/backward_lstm_4_1/while/mul_3" type="Multiply" version="opset1">
						<input>
							<port id="0">
								<dim>1</dim>
								<dim>256</dim>
							</port>
							<port id="1">
								<dim>1</dim>
								<dim>256</dim>
							</port>
						</input>
						<output>
							<port id="2" precision="FP16">
								<dim>1</dim>
								<dim>256</dim>
							</port>
						</output>
					</layer>
					<layer id="26" name="bidirectional_4/backward_lstm_4_1/while/mul_3/Output_0/Data_/sink_port_0" type="Result" version="opset1">
						<input>
							<port id="0">
								<dim>1</dim>
								<dim>256</dim>
							</port>
						</input>
					</layer>
					<layer id="27" name="58_const" type="Const" version="opset1">
						<data element_type="i64" offset="286274" shape="1" size="8"/>
						<output>
							<port id="1" precision="I64">
								<dim>1</dim>
							</port>
						</output>
					</layer>
					<layer id="28" name="bidirectional_4/backward_lstm_4_1/while/mul_3/Output_0/Data_/OutputUnsqueeze" type="Unsqueeze" version="opset1">
						<input>
							<port id="0">
								<dim>1</dim>
								<dim>256</dim>
							</port>
							<port id="1">
								<dim>1</dim>
							</port>
						</input>
						<output>
							<port id="2" precision="FP16">
								<dim>1</dim>
								<dim>1</dim>
								<dim>256</dim>
							</port>
						</output>
					</layer>
					<layer id="29" name="60/sink_port_0" type="Result" version="opset1">
						<input>
							<port id="0">
								<dim>1</dim>
								<dim>1</dim>
								<dim>256</dim>
							</port>
						</input>
					</layer>
				</layers>
				<edges>
					<edge from-layer="0" from-port="0" to-layer="2" to-port="0"/>
					<edge from-layer="1" from-port="1" to-layer="2" to-port="1"/>
					<edge from-layer="2" from-port="2" to-layer="4" to-port="0"/>
					<edge from-layer="3" from-port="1" to-layer="4" to-port="1"/>
					<edge from-layer="4" from-port="2" to-layer="6" to-port="0"/>
					<edge from-layer="5" from-port="1" to-layer="6" to-port="1"/>
					<edge from-layer="7" from-port="0" to-layer="9" to-port="0"/>
					<edge from-layer="8" from-port="1" to-layer="9" to-port="1"/>
					<edge from-layer="6" from-port="2" to-layer="10" to-port="0"/>
					<edge from-layer="9" from-port="2" to-layer="10" to-port="1"/>
					<edge from-layer="10" from-port="2" to-layer="12" to-port="0"/>
					<edge from-layer="11" from-port="1" to-layer="12" to-port="1"/>
					<edge from-layer="12" from-port="2" to-layer="14" to-port="0"/>
					<edge from-layer="13" from-port="1" to-layer="14" to-port="1"/>
					<edge from-layer="14" from-port="3" to-layer="15" to-port="0"/>
					<edge from-layer="15" from-port="1" to-layer="17" to-port="0"/>
					<edge from-layer="16" from-port="0" to-layer="17" to-port="1"/>
					<edge from-layer="14" from-port="2" to-layer="18" to-port="0"/>
					<edge from-layer="14" from-port="4" to-layer="19" to-port="0"/>
					<edge from-layer="18" from-port="1" to-layer="20" to-port="0"/>
					<edge from-layer="19" from-port="1" to-layer="20" to-port="1"/>
					<edge from-layer="17" from-port="2" to-layer="21" to-port="0"/>
					<edge from-layer="20" from-port="2" to-layer="21" to-port="1"/>
					<edge from-layer="21" from-port="2" to-layer="22" to-port="0"/>
					<edge from-layer="14" from-port="5" to-layer="23" to-port="0"/>
					<edge from-layer="21" from-port="2" to-layer="24" to-port="0"/>
					<edge from-layer="23" from-port="1" to-layer="25" to-port="0"/>
					<edge from-layer="24" from-port="1" to-layer="25" to-port="1"/>
					<edge from-layer="25" from-port="2" to-layer="26" to-port="0"/>
					<edge from-layer="25" from-port="2" to-layer="28" to-port="0"/>
					<edge from-layer="27" from-port="1" to-layer="28" to-port="1"/>
					<edge from-layer="28" from-port="2" to-layer="29" to-port="0"/>
				</edges>
			</body>
		</layer>
		<layer id="128" name="bidirectional_4/backward_lstm_4_1/transpose_1/Cast_19430_const" type="Const" version="opset1">
			<data element_type="i64" offset="185148" shape="3" size="24"/>
			<output>
				<port id="1" precision="I64">
					<dim>3</dim>
				</port>
			</output>
		</layer>
		<layer id="129" name="bidirectional_4/backward_lstm_4_1/transpose_1" type="Transpose" version="opset1">
			<input>
				<port id="0">
					<dim>128</dim>
					<dim>1</dim>
					<dim>256</dim>
				</port>
				<port id="1">
					<dim>3</dim>
				</port>
			</input>
			<output>
				<port id="2" precision="FP16">
					<dim>1</dim>
					<dim>128</dim>
					<dim>256</dim>
				</port>
			</output>
		</layer>
		<layer id="130" name="35483550_const" type="Const" version="opset1">
			<data element_type="f16" offset="185684" shape="1" size="2"/>
			<output>
				<port id="1" precision="FP16">
					<dim>1</dim>
				</port>
			</output>
		</layer>
		<layer id="131" name="bidirectional_4/ReverseV2/ReverseSequence/" type="ReverseSequence" version="opset1">
			<data batch_axis="0" seq_axis="1"/>
			<input>
				<port id="0">
					<dim>1</dim>
					<dim>128</dim>
					<dim>256</dim>
				</port>
				<port id="1">
					<dim>1</dim>
				</port>
			</input>
			<output>
				<port id="2" precision="FP16">
					<dim>1</dim>
					<dim>128</dim>
					<dim>256</dim>
				</port>
			</output>
		</layer>
		<layer id="132" name="bidirectional_4/concat" type="Concat" version="opset1">
			<data axis="2"/>
			<input>
				<port id="0">
					<dim>1</dim>
					<dim>128</dim>
					<dim>256</dim>
				</port>
				<port id="1">
					<dim>1</dim>
					<dim>128</dim>
					<dim>256</dim>
				</port>
			</input>
			<output>
				<port id="2" precision="FP16">
					<dim>1</dim>
					<dim>128</dim>
					<dim>512</dim>
				</port>
			</output>
		</layer>
		<layer id="133" name="dense/Tensordot/Reshape/Cast_19450_const" type="Const" version="opset1">
			<data element_type="i64" offset="185686" shape="2" size="16"/>
			<output>
				<port id="1" precision="I64">
					<dim>2</dim>
				</port>
			</output>
		</layer>
		<layer id="134" name="dense/Tensordot/Reshape" type="Reshape" version="opset1">
			<data special_zero="False"/>
			<input>
				<port id="0">
					<dim>1</dim>
					<dim>128</dim>
					<dim>512</dim>
				</port>
				<port id="1">
					<dim>2</dim>
				</port>
			</input>
			<output>
				<port id="2" precision="FP16">
					<dim>128</dim>
					<dim>512</dim>
				</port>
			</output>
		</layer>
		<layer id="135" name="dense/Tensordot/MatMul/1_port_transpose7976_const" type="Const" version="opset1">
			<data element_type="f16" offset="185702" shape="98,512" size="100352"/>
			<output>
				<port id="1" precision="FP16">
					<dim>98</dim>
					<dim>512</dim>
				</port>
			</output>
		</layer>
		<layer id="136" name="dense/Tensordot/MatMul" type="MatMul" version="opset1">
			<data transpose_a="False" transpose_b="True"/>
			<input>
				<port id="0">
					<dim>128</dim>
					<dim>512</dim>
				</port>
				<port id="1">
					<dim>98</dim>
					<dim>512</dim>
				</port>
			</input>
			<output>
				<port id="2" precision="FP16">
					<dim>128</dim>
					<dim>98</dim>
				</port>
			</output>
		</layer>
		<layer id="137" name="dense/Tensordot/Cast_19464_const" type="Const" version="opset1">
			<data element_type="i64" offset="286054" shape="3" size="24"/>
			<output>
				<port id="1" precision="I64">
					<dim>3</dim>
				</port>
			</output>
		</layer>
		<layer id="138" name="dense/Tensordot" type="Reshape" version="opset1">
			<data special_zero="False"/>
			<input>
				<port id="0">
					<dim>128</dim>
					<dim>98</dim>
				</port>
				<port id="1">
					<dim>3</dim>
				</port>
			</input>
			<output>
				<port id="2" precision="FP16">
					<dim>1</dim>
					<dim>128</dim>
					<dim>98</dim>
				</port>
			</output>
		</layer>
		<layer id="139" name="dense/BiasAdd/ReadVariableOp/Output_0/Data_/copy_const" type="Const" version="opset1">
			<data element_type="f16" offset="286078" shape="1,1,98" size="196"/>
			<output>
				<port id="1" precision="FP16">
					<dim>1</dim>
					<dim>1</dim>
					<dim>98</dim>
				</port>
			</output>
		</layer>
		<layer id="140" name="dense/BiasAdd/Add" type="Add" version="opset1">
			<input>
				<port id="0">
					<dim>1</dim>
					<dim>128</dim>
					<dim>98</dim>
				</port>
				<port id="1">
					<dim>1</dim>
					<dim>1</dim>
					<dim>98</dim>
				</port>
			</input>
			<output>
				<port id="2" precision="FP16">
					<dim>1</dim>
					<dim>128</dim>
					<dim>98</dim>
				</port>
			</output>
		</layer>
		<layer id="141" name="dense/BiasAdd/Softmax" type="SoftMax" version="opset1">
			<data axis="2"/>
			<input>
				<port id="0">
					<dim>1</dim>
					<dim>128</dim>
					<dim>98</dim>
				</port>
			</input>
			<output>
				<port id="1" precision="FP16">
					<dim>1</dim>
					<dim>128</dim>
					<dim>98</dim>
				</port>
			</output>
		</layer>
		<layer id="142" name="dense/truediv/sink_port_0" type="Result" version="opset1">
			<input>
				<port id="0">
					<dim>1</dim>
					<dim>128</dim>
					<dim>98</dim>
				</port>
			</input>
		</layer>
	</layers>
	<edges>
		<edge from-layer="0" from-port="0" to-layer="2" to-port="0"/>
		<edge from-layer="1" from-port="1" to-layer="2" to-port="1"/>
		<edge from-layer="2" from-port="2" to-layer="4" to-port="0"/>
		<edge from-layer="3" from-port="1" to-layer="4" to-port="1"/>
		<edge from-layer="4" from-port="2" to-layer="6" to-port="0"/>
		<edge from-layer="5" from-port="1" to-layer="6" to-port="1"/>
		<edge from-layer="6" from-port="2" to-layer="7" to-port="0"/>
		<edge from-layer="7" from-port="1" to-layer="9" to-port="0"/>
		<edge from-layer="8" from-port="1" to-layer="9" to-port="1"/>
		<edge from-layer="9" from-port="2" to-layer="11" to-port="0"/>
		<edge from-layer="10" from-port="1" to-layer="11" to-port="1"/>
		<edge from-layer="11" from-port="2" to-layer="13" to-port="0"/>
		<edge from-layer="12" from-port="1" to-layer="13" to-port="1"/>
		<edge from-layer="13" from-port="2" to-layer="14" to-port="0"/>
		<edge from-layer="14" from-port="1" to-layer="16" to-port="0"/>
		<edge from-layer="15" from-port="1" to-layer="16" to-port="1"/>
		<edge from-layer="16" from-port="2" to-layer="18" to-port="0"/>
		<edge from-layer="17" from-port="1" to-layer="18" to-port="1"/>
		<edge from-layer="18" from-port="2" to-layer="20" to-port="0"/>
		<edge from-layer="19" from-port="1" to-layer="20" to-port="1"/>
		<edge from-layer="20" from-port="2" to-layer="21" to-port="0"/>
		<edge from-layer="21" from-port="1" to-layer="23" to-port="0"/>
		<edge from-layer="22" from-port="1" to-layer="23" to-port="1"/>
		<edge from-layer="23" from-port="2" to-layer="25" to-port="0"/>
		<edge from-layer="24" from-port="1" to-layer="25" to-port="1"/>
		<edge from-layer="25" from-port="2" to-layer="27" to-port="0"/>
		<edge from-layer="26" from-port="1" to-layer="27" to-port="1"/>
		<edge from-layer="27" from-port="2" to-layer="29" to-port="0"/>
		<edge from-layer="28" from-port="1" to-layer="29" to-port="1"/>
		<edge from-layer="29" from-port="2" to-layer="31" to-port="0"/>
		<edge from-layer="30" from-port="1" to-layer="31" to-port="1"/>
		<edge from-layer="31" from-port="2" to-layer="33" to-port="0"/>
		<edge from-layer="32" from-port="1" to-layer="33" to-port="1"/>
		<edge from-layer="33" from-port="2" to-layer="35" to-port="0"/>
		<edge from-layer="34" from-port="1" to-layer="35" to-port="1"/>
		<edge from-layer="35" from-port="2" to-layer="37" to-port="0"/>
		<edge from-layer="36" from-port="1" to-layer="37" to-port="1"/>
		<edge from-layer="37" from-port="2" to-layer="39" to-port="0"/>
		<edge from-layer="38" from-port="1" to-layer="39" to-port="1"/>
		<edge from-layer="39" from-port="2" to-layer="42" to-port="0"/>
		<edge from-layer="40" from-port="1" to-layer="42" to-port="1"/>
		<edge from-layer="41" from-port="1" to-layer="42" to-port="2"/>
		<edge from-layer="42" from-port="3" to-layer="44" to-port="0"/>
		<edge from-layer="43" from-port="1" to-layer="44" to-port="1"/>
		<edge from-layer="37" from-port="2" to-layer="46" to-port="0"/>
		<edge from-layer="45" from-port="1" to-layer="46" to-port="1"/>
		<edge from-layer="46" from-port="2" to-layer="48" to-port="0"/>
		<edge from-layer="47" from-port="1" to-layer="48" to-port="1"/>
		<edge from-layer="48" from-port="2" to-layer="51" to-port="0"/>
		<edge from-layer="49" from-port="1" to-layer="51" to-port="1"/>
		<edge from-layer="50" from-port="1" to-layer="51" to-port="2"/>
		<edge from-layer="51" from-port="3" to-layer="53" to-port="0"/>
		<edge from-layer="52" from-port="1" to-layer="53" to-port="1"/>
		<edge from-layer="53" from-port="2" to-layer="55" to-port="0"/>
		<edge from-layer="54" from-port="1" to-layer="55" to-port="1"/>
		<edge from-layer="44" from-port="2" to-layer="56" to-port="0"/>
		<edge from-layer="55" from-port="2" to-layer="56" to-port="1"/>
		<edge from-layer="56" from-port="2" to-layer="58" to-port="0"/>
		<edge from-layer="57" from-port="1" to-layer="58" to-port="1"/>
		<edge from-layer="58" from-port="2" to-layer="61" to-port="0"/>
		<edge from-layer="59" from-port="1" to-layer="61" to-port="1"/>
		<edge from-layer="60" from-port="1" to-layer="61" to-port="2"/>
		<edge from-layer="61" from-port="3" to-layer="63" to-port="0"/>
		<edge from-layer="62" from-port="1" to-layer="63" to-port="1"/>
		<edge from-layer="56" from-port="2" to-layer="65" to-port="0"/>
		<edge from-layer="64" from-port="1" to-layer="65" to-port="1"/>
		<edge from-layer="65" from-port="2" to-layer="67" to-port="0"/>
		<edge from-layer="66" from-port="1" to-layer="67" to-port="1"/>
		<edge from-layer="67" from-port="2" to-layer="70" to-port="0"/>
		<edge from-layer="68" from-port="1" to-layer="70" to-port="1"/>
		<edge from-layer="69" from-port="1" to-layer="70" to-port="2"/>
		<edge from-layer="70" from-port="3" to-layer="72" to-port="0"/>
		<edge from-layer="71" from-port="1" to-layer="72" to-port="1"/>
		<edge from-layer="72" from-port="2" to-layer="74" to-port="0"/>
		<edge from-layer="73" from-port="1" to-layer="74" to-port="1"/>
		<edge from-layer="63" from-port="2" to-layer="75" to-port="0"/>
		<edge from-layer="74" from-port="2" to-layer="75" to-port="1"/>
		<edge from-layer="75" from-port="2" to-layer="77" to-port="0"/>
		<edge from-layer="76" from-port="1" to-layer="77" to-port="1"/>
		<edge from-layer="77" from-port="2" to-layer="80" to-port="0"/>
		<edge from-layer="78" from-port="1" to-layer="80" to-port="1"/>
		<edge from-layer="79" from-port="1" to-layer="80" to-port="2"/>
		<edge from-layer="80" from-port="3" to-layer="82" to-port="0"/>
		<edge from-layer="81" from-port="1" to-layer="82" to-port="1"/>
		<edge from-layer="75" from-port="2" to-layer="84" to-port="0"/>
		<edge from-layer="83" from-port="1" to-layer="84" to-port="1"/>
		<edge from-layer="84" from-port="2" to-layer="86" to-port="0"/>
		<edge from-layer="85" from-port="1" to-layer="86" to-port="1"/>
		<edge from-layer="86" from-port="2" to-layer="89" to-port="0"/>
		<edge from-layer="87" from-port="1" to-layer="89" to-port="1"/>
		<edge from-layer="88" from-port="1" to-layer="89" to-port="2"/>
		<edge from-layer="89" from-port="3" to-layer="91" to-port="0"/>
		<edge from-layer="90" from-port="1" to-layer="91" to-port="1"/>
		<edge from-layer="91" from-port="2" to-layer="93" to-port="0"/>
		<edge from-layer="92" from-port="1" to-layer="93" to-port="1"/>
		<edge from-layer="82" from-port="2" to-layer="94" to-port="0"/>
		<edge from-layer="93" from-port="2" to-layer="94" to-port="1"/>
		<edge from-layer="94" from-port="2" to-layer="96" to-port="0"/>
		<edge from-layer="95" from-port="1" to-layer="96" to-port="1"/>
		<edge from-layer="96" from-port="2" to-layer="99" to-port="0"/>
		<edge from-layer="97" from-port="1" to-layer="99" to-port="1"/>
		<edge from-layer="98" from-port="1" to-layer="99" to-port="2"/>
		<edge from-layer="99" from-port="3" to-layer="101" to-port="0"/>
		<edge from-layer="100" from-port="1" to-layer="101" to-port="1"/>
		<edge from-layer="94" from-port="2" to-layer="103" to-port="0"/>
		<edge from-layer="102" from-port="1" to-layer="103" to-port="1"/>
		<edge from-layer="103" from-port="2" to-layer="105" to-port="0"/>
		<edge from-layer="104" from-port="1" to-layer="105" to-port="1"/>
		<edge from-layer="105" from-port="2" to-layer="108" to-port="0"/>
		<edge from-layer="106" from-port="1" to-layer="108" to-port="1"/>
		<edge from-layer="107" from-port="1" to-layer="108" to-port="2"/>
		<edge from-layer="108" from-port="3" to-layer="110" to-port="0"/>
		<edge from-layer="109" from-port="1" to-layer="110" to-port="1"/>
		<edge from-layer="110" from-port="2" to-layer="112" to-port="0"/>
		<edge from-layer="111" from-port="1" to-layer="112" to-port="1"/>
		<edge from-layer="101" from-port="2" to-layer="113" to-port="0"/>
		<edge from-layer="112" from-port="2" to-layer="113" to-port="1"/>
		<edge from-layer="113" from-port="2" to-layer="115" to-port="0"/>
		<edge from-layer="114" from-port="1" to-layer="115" to-port="1"/>
		<edge from-layer="115" from-port="2" to-layer="118" to-port="0"/>
		<edge from-layer="116" from-port="1" to-layer="118" to-port="1"/>
		<edge from-layer="117" from-port="1" to-layer="118" to-port="2"/>
		<edge from-layer="118" from-port="3" to-layer="120" to-port="0"/>
		<edge from-layer="119" from-port="1" to-layer="120" to-port="1"/>
		<edge from-layer="113" from-port="2" to-layer="122" to-port="0"/>
		<edge from-layer="121" from-port="1" to-layer="122" to-port="1"/>
		<edge from-layer="122" from-port="2" to-layer="124" to-port="0"/>
		<edge from-layer="123" from-port="1" to-layer="124" to-port="1"/>
		<edge from-layer="124" from-port="2" to-layer="127" to-port="0"/>
		<edge from-layer="125" from-port="1" to-layer="127" to-port="1"/>
		<edge from-layer="126" from-port="1" to-layer="127" to-port="2"/>
		<edge from-layer="127" from-port="3" to-layer="129" to-port="0"/>
		<edge from-layer="128" from-port="1" to-layer="129" to-port="1"/>
		<edge from-layer="129" from-port="2" to-layer="131" to-port="0"/>
		<edge from-layer="130" from-port="1" to-layer="131" to-port="1"/>
		<edge from-layer="120" from-port="2" to-layer="132" to-port="0"/>
		<edge from-layer="131" from-port="2" to-layer="132" to-port="1"/>
		<edge from-layer="132" from-port="2" to-layer="134" to-port="0"/>
		<edge from-layer="133" from-port="1" to-layer="134" to-port="1"/>
		<edge from-layer="134" from-port="2" to-layer="136" to-port="0"/>
		<edge from-layer="135" from-port="1" to-layer="136" to-port="1"/>
		<edge from-layer="136" from-port="2" to-layer="138" to-port="0"/>
		<edge from-layer="137" from-port="1" to-layer="138" to-port="1"/>
		<edge from-layer="138" from-port="2" to-layer="140" to-port="0"/>
		<edge from-layer="139" from-port="1" to-layer="140" to-port="1"/>
		<edge from-layer="140" from-port="2" to-layer="141" to-port="0"/>
		<edge from-layer="141" from-port="1" to-layer="142" to-port="0"/>
	</edges>
	<meta_data>
		<MO_version value="2020.2.0-60-g0bc66e26ff"/>
		<cli_parameters>
			<blobs_as_inputs value="True"/>
			<data_type value="FP16"/>
			<disable_nhwc_to_nchw value="False"/>
			<disable_resnet_optimization value="False"/>
			<disable_weights_compression value="False"/>
			<enable_concat_optimization value="False"/>
			<extensions value="DIR"/>
			<framework value="tf"/>
			<freeze_placeholder_with_value value="{}"/>
			<generate_deprecated_IR_V2 value="False"/>
			<generate_deprecated_IR_V7 value="False"/>
			<generate_experimental_IR_V10 value="True"/>
			<input_model value="DIR\output.pb"/>
			<input_model_is_text value="False"/>
			<input_shape value="[1,1024,128,1]"/>
			<keep_quantize_ops_in_IR value="True"/>
			<keep_shape_ops value="False"/>
			<log_level value="DEBUG"/>
			<mean_scale_values value="{}"/>
			<mean_values value="()"/>
			<model_name value="HTRModel16bit"/>
			<move_to_preprocess value="False"/>
			<output_dir value="DIR"/>
			<placeholder_data_types value="{}"/>
			<placeholder_shapes value="[   1 1024  128    1]"/>
			<progress value="False"/>
			<reverse_input_channels value="False"/>
			<scale_values value="()"/>
			<silent value="False"/>
			<stream_output value="False"/>
			<unset unset_cli_parameters="batch, disable_fusing, disable_gfusing, finegrain_fusing, input, input_checkpoint, input_meta_graph, output, saved_model_dir, saved_model_tags, scale, tensorboard_logdir, tensorflow_custom_layer_libraries, tensorflow_custom_operations_config_update, tensorflow_object_detection_api_pipeline_config, tensorflow_use_custom_operations_config, transformations_config"/>
		</cli_parameters>
	</meta_data>
</net>
